weights/InvertedPendulum-v2.pt (torch_old, 5846 bytes, 13 tensors)

0.weight f4 [16, 5]
000000 bc 27 80 bd b3 91 93 3c de c4 3c 3f 93 d9 17 3e
       -0.06257579 0.01801381 0.73737895 0.14829092
000010 62 d1 ec be 7e 20 3c 3f a8 bb 53 be 8b 0f db 3d
       -0.46253496 0.7348708 -0.20677054 0.10696324
000020 08 5b aa 3d ff 68 f4 be 95 a1 18 3f 35 e1 16 bd
       0.08318144 -0.47736356 0.59621555 -0.036835868
000030 90 f6 e2 3f d3 03 34 be ee f4 a6 be 57 96 37 3f
       1.7731495 -0.17579584 -0.32608742 0.71713775
000040 1a 95 85 3d 2d c8 b9 bf f0 08 ca be e7 99 41 bd
       0.065225795 -1.4514214 -0.39459944 -0.047265913
000050 ec 73 d2 3e 1f 63 a6 bd 0a 05 e5 3e 44 1d 13 3f
       0.41104066 -0.081243746 0.44730407 0.5746653
000060 d2 b9 f0 bd 7d b6 2c bf 99 9d 9e 3d 7f e1 b6 be
       -0.117541924 -0.67465955 0.07744903 -0.35718915
000070 4d 9b a5 3e e8 0f f4 be b3 37 c9 be 47 80 ed bc
       0.32345048 -0.47668386 -0.39300308 -0.028991831
000080 bd 66 62 3f e8 01 24 be 17 81 8d 3e 33 71 ee be
       0.88438016 -0.16016352 0.2763755 -0.4657074
000090 62 d2 57 be 10 d1 5d 3f 0e 30 4e be 65 07 15 bc
       -0.21076348 0.8664713 -0.20135519 -0.009096001
0000a0 14 36 30 bf 98 fe a6 3d 9c f6 d4 3f 87 16 c1 bd
       -0.68832517 0.08154029 1.6637759 -0.09428125
0000b0 f9 52 94 3e 0c 69 02 bf 21 cc 56 be c0 a0 db 3d
       0.28969553 -0.5094154 -0.20976306 0.1072402
0000c0 50 7c c3 be 07 c6 0e bd 5c 56 d1 3e e8 71 15 3e
       -0.3818078 -0.034856822 0.408862 0.14594233
0000d0 2d ff 87 3e 2b 10 08 3d 8d 2b d3 3e 4a 5e c8 3e
       0.2656187 0.033218544 0.41244164 0.39134437
0000e0 de 20 96 3e 0b 35 e0 3f e2 45 4b be 71 03 80 be
       0.2932195 1.7516187 -0.19850877 -0.25002626
0000f0 ba 28 56 3b da 5f 56 3e 53 5b cf be c4 1a fb be
       0.0032678084 0.20935002 -0.40499362 -0.49043858
000100 e0 7f 94 3e 1b 2f 04 3f 54 7d a3 3e 15 ee d9 3f
       0.2900381 0.5163438 0.31931555 1.7025782
000110 ad 2a 2a bf 94 52 68 be 42 2a 79 3e 1d 78 fd be
       -0.6647137 -0.22687751 0.24332526 -0.49505702
000120 c7 42 65 be 8d 49 97 3e ad ba f5 3e cf c6 1f bf
       -0.22388755 0.29548302 0.47993985 -0.6241273
000130 d6 e9 d9 bb 64 06 a7 be 77 6c b1 bd 73 b6 d1 be
       -0.00665019 -0.32622063 -0.08663266 -0.4095951

0.bias f4 [16]
000000 97 af 1b 3f f4 63 cd bd f9 55 b5 3e 77 63 f6 be
       0.60814804 -0.1002883 0.35417154 -0.4812276
000010 f7 b5 0b bd 71 2a 58 3e b5 69 f3 3e ee 6e 70 3f
       -0.034109082 0.2110994 0.47541586 0.93919265
000020 a4 7b 7a 3e f5 1b e9 3e 44 5b 16 3f c1 1a 4e 3d
       0.24461228 0.45529142 0.5873301 0.050318483
000030 c0 f7 af 3e 36 fa 05 3d 2a 7e 3a 3e 3a 4e e6 be
       0.34368706 0.032709323 0.1821219 -0.44981557

2.weight f4 [16, 16]
000000 21 32 ad be 5f 6d dc be 40 9c e7 be b3 2e 4b be
       -0.33827308 -0.43052194 -0.45236397 -0.19842033
000010 24 b6 37 be 6a ff 26 be 92 8f 2f be 06 3b c1 3d
       -0.17940575 -0.1630837 -0.17144611 0.09435086
000020 e2 fc 46 3e d5 16 15 3e f4 98 21 be e1 da 35 bf
       0.19432405 0.14559491 -0.15781003 -0.7103711
000030 99 a7 58 be 73 3f 0e be 75 5a 0b 3e 87 84 e0 3d
       -0.21157683 -0.13891391 0.13608725 0.109627776
000040 73 76 92 3d b0 32 3b 3d 0b 39 51 3e 8c 56 b0 bc
       0.07151499 0.045702636 0.20431916 -0.021525644
000050 54 40 f8 bd 41 14 6d be 21 96 75 3e f7 1d ff bd
       -0.121216446 -0.23152258 0.23983051 -0.12456887
000060 91 9c 39 3e 26 ef 96 3e d6 3c 30 3e 8a f6 9a 3e
       0.18126132 0.2947933 0.17210707 0.3026622
000070 82 21 73 3e 0b 46 8a 3e 52 02 c7 bd 9b c5 ca be
       0.23743251 0.27006564 -0.097172394 -0.39603886
000080 e7 02 9f be 43 bf 9e be ec ba 30 bf 4a e5 16 3d
       -0.31056902 -0.31005296 -0.6903522 0.03683976
000090 57 ca 48 be a8 ea 51 bc 88 8d cf 3d 8c 19 25 3d
       -0.19608437 -0.012812294 0.10134417 0.040307567
0000a0 8d db 99 3e 88 92 8b 3e fc 7a 1d 3d d8 27 6f bf
       0.30050316 0.27260232 0.038447365 -0.9342017
0000b0 c3 a5 8a 3d 5f be 11 bf 1b 32 db 3e b7 e9 55 be
       0.06769898 -0.5693111 0.42811665 -0.20889936
0000c0 c9 d9 cb be 5d d4 ac bd 6c 8c 2c bf 21 c2 fe 3c
       -0.39814594 -0.084389426 -0.67401767 0.031098427
0000d0 d5 67 bc be 18 bf 14 be 54 a3 2d 3e 65 0b 9d 3d
       -0.36797968 -0.14526021 0.16956836 0.07668189
0000e0 2a d2 fa bd 7f 98 a1 3e 19 b0 0f bf ce 15 e9 be
       -0.12247117 0.31561658 -0.5612808 -0.45524448
0000f0 53 ad f6 3d fc 77 c4 3d e4 41 92 bd 9a 9f 50 bd
       0.12044778 0.09593198 -0.07141474 -0.050933458
000100 17 01 01 be 2f 29 68 be 76 22 a2 be 0b a1 24 be
       -0.12598072 -0.2267196 -0.31666917 -0.16077058
000110 d2 f7 62 3e 77 ae 87 3e 88 87 b6 bd 5f 1b 4e be
       0.22164848 0.26500294 -0.08912569 -0.20127629
000120 e1 95 8d be 23 4a 37 be e0 59 c9 3c 95 2f 97 be
       -0.2765341 -0.17899375 0.024578989 -0.2952849
000130 a9 fd cd be 32 10 8e be 8e 4b 1c 3e 9a ba 75 3e
       -0.4023259 -0.2774673 0.15263197 0.23996964
000140 77 b1 58 bc 35 b5 09 be 54 16 fd be e9 45 cc 3e
       -0.013225905 -0.13448031 -0.49431098 0.39897087
000150 06 1a 4d be 6d ec 82 3e 92 8d 69 3e 91 09 da bd
       -0.20029458 0.25571004 0.22807911 -0.10646356
000160 53 58 1f be 7d 27 17 3e 4f 10 96 be 37 46 29 bf
       -0.15561037 0.14761157 -0.29309317 -0.66122764
000170 62 24 9a 3e d6 92 cf 3d 8b e8 5b be 27 84 2e 3f
       0.30105883 0.101354286 -0.21475427 0.681704
000180 5b f5 31 be cc 1e 19 3f 2a c0 c6 3d d5 29 a7 3e
       -0.17378752 0.5981262 0.09704621 0.32649103
000190 df 16 1b 3e 58 17 42 be 45 5d 35 bf 8c a7 ea be
       0.15145443 -0.18954217 -0.70845443 -0.45830953
0001a0 d1 ff 32 bf fa e8 c8 be 04 eb 3c be 03 03 94 3e
       -0.69921595 -0.39240247 -0.18449026 0.28908548
0001b0 7f 9f 9f be a0 1d a2 3d f9 61 4e 3e 2c c6 75 be
       -0.31176373 0.07915807 0.20154561 -0.24001378
0001c0 69 0a e3 be 46 1d 2f 3b a9 ae 54 3e ed 9c f7 3e
       -0.4434388 0.002672033 0.20769753 0.48361912
0001d0 f2 bb b7 be fc 42 3e be 0e c2 80 be d6 dc 1a bf
       -0.35885578 -0.1858024 -0.25148052 -0.6049322
0001e0 8a fe 83 be 98 e1 37 bd a0 39 a2 3c b1 8c 16 3e
       -0.25780135 -0.044892877 0.019802868 0.14702107
0001f0 22 78 2c 3e b6 cf 57 3c 3c 3d a5 3c 45 33 27 be
       0.16842702 0.013172081 0.0201708 -0.16328152
000200 10 f4 87 be 49 73 42 be 7e 65 17 be 2e 06 81 3f
       -0.26553392 -0.1898929 -0.1478481 1.0080011
000210 e6 88 d2 bd 82 42 a2 bd 90 f9 44 bd 48 f6 41 bf
       -0.102800176 -0.079228416 -0.048089564 -0.7576642
000220 08 9d 1c be e1 16 42 be 5c 6d 39 3e ce 3b 38 be
       -0.15294278 -0.1895404 0.18108124 -0.17991564
000230 80 c6 8d 3e ab bd 38 bf 73 34 c9 3e 61 cd d4 be
       0.27690506 -0.7216441 0.39297828 -0.41562942
000240 33 df a9 3e 27 85 36 3e 0a 26 08 3f f6 13 8a 3e
       0.331781 0.17824231 0.53183043 0.26968354
000250 6a 2e 2b 3e 8d ec 23 3e e8 cc ef bd 7a 9e 88 be
       0.16716924 0.16008206 -0.11709005 -0.26683408
000260 26 83 eb bd 68 fb 8f be aa 1e 9c 3e ca 90 ae 3e
       -0.11499624 -0.28121495 0.30492145 0.3409484
000270 49 5d 97 bc 11 ae b4 3d 89 9a 63 3e bf 7c 9e be
       -0.018477099 0.08822263 0.22226919 -0.3095455
000280 4d 25 fa bd c3 db ef be 86 c5 90 3d b6 44 8c bd
       -0.12214146 -0.46847352 0.070689246 -0.06849043
000290 bd cc 8e 3e 78 89 ce 3d d0 fa 53 3e c1 d2 6a 3d
       0.27890578 0.10084814 0.20701146 0.057329897
0002a0 e4 31 f0 3e a3 4c ad bd 76 3d 8a 3d fd 84 cd 3d
       0.46913064 -0.08461883 0.06750004 0.10035131
0002b0 af 8b 30 bf 39 ce aa be d4 4e db 3c 86 20 a8 be
       -0.6896314 -0.3336046 0.026770987 -0.32837313
0002c0 6a 88 a5 bc 5b 63 ef 3e 5d 6c 98 3c 24 5d 08 3f
       -0.020206649 0.4675549 0.01860636 0.5326712
0002d0 e0 1d 56 3e 40 0c 51 be bf e2 d6 be 1d d0 da be
       0.20909834 -0.20414829 -0.4196987 -0.42736903
0002e0 6f ba de be 16 a2 0d be 51 c9 fd 3d a6 a0 ca be
       -0.43501613 -0.13831362 0.12391914 -0.3957569
0002f0 dd 1b 6c 3e 00 9f d5 be 40 f2 f5 3e e4 ab a1 be
       0.23057504 -0.4172287 0.48036385 -0.31576455
000300 55 30 86 3e 28 5c 6a 3e 77 fa 90 be 66 fe 87 bd
       0.2620875 0.22886717 -0.2831609 -0.066403195
000310 ec 29 dc 3d 4e e8 3c 3e c8 d8 8e 3e 44 6c 7c 3e
       0.107501835 0.18447992 0.27899766 0.24650675
000320 69 68 cd 3e b1 0e d9 3e e5 b5 b1 be 20 16 87 be
       0.4011872 0.4239402 -0.34709087 -0.26384068
000330 ff 54 5c 3e 1a 3b ff 3d 9c 6a 8e be 21 1d 28 3f
       0.21516798 0.124624446 -0.27815711 0.6566945
000340 7c bb 54 3e 03 06 99 3d 7a 4e 68 3d 27 b7 2c bf
       0.20774645 0.0747185 0.056715466 -0.6746697
000350 28 8e 32 be 4d 25 0b 3e 37 37 8f 3e 38 29 d8 3e
       -0.17437041 0.13588448 0.27971813 0.42218947
000360 e8 38 7d 3e 94 01 be 3e 57 52 aa bd 12 26 d8 3e
       0.2472874 0.3711058 -0.08316486 0.42216545
000370 29 3e 86 3d 98 16 3b 3f a4 fe 5a 3e d2 1d da 3e
       0.06554825 0.7308135 0.213862 0.42600876
000380 06 64 2e bf 08 b1 91 3e 9a 2e d9 3d 72 84 58 3f
       -0.68121374 0.28455377 0.10604592 0.84577096
000390 f4 bc 1a be 02 25 e2 be 92 71 b7 be 73 48 1f bf
       -0.15111142 -0.4416886 -0.35828835 -0.62219924
0003a0 7e 53 db be 40 37 32 3d 33 7c b6 bd 7c ea 7f 3c
       -0.42837137 0.04350972 -0.08910408 0.01561987
0003b0 e1 c1 86 3e 0b 26 7e bd 98 83 ef bc 6e ad b2 be
       0.26319793 -0.062048 -0.029237553 -0.3489794
0003c0 b0 b4 83 3a 59 a9 a6 be 6a f0 aa be 3a cf 54 be
       0.0010048356 -0.32551077 -0.33386546 -0.20782176
0003d0 52 6d 06 3c 1f 8e b9 3e 49 d6 56 3e 59 75 48 3b
       0.008204775 0.36241242 0.20980181 0.0030587523
0003e0 98 5c 2b be 32 6e 54 bd 42 85 0e bf 5f e3 0a bf
       -0.1673454 -0.051862903 -0.55672085 -0.5425319
0003f0 c8 72 0e bf 44 1d e8 bd ba 8b 4a 3d 25 7c b1 3e
       -0.5564389 -0.11333707 0.04944966 0.34665027

2.bias f4 [16]
000000 09 87 5b 3c 63 72 61 3e ba 78 fc 3e e9 12 65 be
       0.013398894 0.22016291 0.49310857 -0.22370495
000010 13 c6 52 3e e6 1a 93 3d 95 d0 3f be 04 96 a7 be
       0.20583372 0.07182865 -0.18731911 -0.3273164
000020 7b 81 8c 3d 01 e8 ae 3e 23 09 75 bd b6 ca 2f be
       0.06860634 0.3416138 -0.059823167 -0.17167172
000030 2d 44 52 3e 54 7a 21 3e 58 8f 3a 3a b1 96 19 be
       0.2053382 0.1576932 0.0007116697 -0.1499889

4.weight f4 [3, 16]
000000 e4 7d de 3e b3 e3 99 bc 7c 52 98 3e 51 6b 20 3f
       0.43455422 -0.018785333 0.2975043 0.6266375
000010 78 07 62 be 22 48 d1 3e 7b c3 48 bf 27 1f 56 3e
       -0.22073162 0.40875345 -0.7842328 0.20910321
000020 6b b5 0e 3e 36 d6 36 bd 8d 21 4e 3d 33 66 ef be
       0.13936393 -0.04463788 0.050324965 -0.4675766
000030 31 76 e7 3e f1 ba d0 bd a4 b2 12 3e 87 2a 80 be
       0.4520736 -0.10191906 0.14325958 -0.25032446
000040 54 1c c6 3d 01 7e 1c be 0a 08 88 be 48 17 b4 be
       0.09673372 -0.15282442 -0.26568633 -0.35174012
000050 86 d9 e0 3e ba 98 c4 3d 99 85 12 3e 78 4f f0 be
       0.43915957 0.09599443 0.14308776 -0.4693563
000060 02 ea eb be 20 27 b6 be d4 48 80 bd a8 48 10 be
       -0.4607697 -0.35576725 -0.06263891 -0.14090216
000070 6a cd 51 3e be bf c0 3e 05 2c 14 bf e7 fa 14 3f
       0.20488515 0.37646288 -0.5787967 0.58195347
000080 bf 2f 82 be 4b 11 b7 3e af fe 0a bf 28 72 01 be
       -0.25427052 0.3575538 -0.54294866 -0.12641203
000090 52 a4 97 be 83 97 89 be 07 44 9b 3d a5 1c 05 3e
       -0.29617554 -0.26873407 0.075813346 0.12999208
0000a0 0c c7 4e bf 9f 24 e4 be 46 c0 0e bf cc ad 9a be
       -0.8077247 -0.4455919 -0.55762136 -0.30210721
0000b0 26 be bd bd 9d ea 18 3f 35 4f 4c be f9 41 81 3d
       -0.092647836 0.5973299 -0.1995209 0.063114114

4.bias f4 [3]
000000 a0 4d e5 bd 40 3a 3f 3e 41 31 bc 3d
       -0.111964464 0.18674564 0.09189082

0.weight f4 [16, 3]
000000 ac fe 56 bf 46 5d 40 bf 3b 73 8e bd 23 da 16 bf
       -0.8398235 -0.75142324 -0.06955572 -0.589266
000010 e5 b0 ee 3e ca a1 2c bf 56 26 07 bf 43 07 bf 3e
       0.46619335 -0.6743437 -0.5279287 0.37310228
000020 bb 92 ac 3e 17 13 38 bf b8 9f 21 bf 98 64 8e be
       0.33705696 -0.7190413 -0.63134336 -0.27811122
000030 89 38 40 3f c9 1c ce 3e e0 13 99 bd af ba f7 be
       0.75086266 0.40256336 -0.07474494 -0.48384616
000040 bf 74 56 bf 89 66 9e 3e fa ee 39 be 70 c2 0b 3f
       -0.8377189 0.30937603 -0.18157569 0.54593563
000050 cb 5c cb 3e 4b 8b 19 3f 0c 86 f6 3e 0a 16 1f bf
       0.39719233 0.5997817 0.48149145 -0.62143004
000060 e4 7e c8 bc 05 ca c8 be bd 1b 24 3e 1a 8d 06 3f
       -0.024474569 -0.3921663 0.16026206 0.52559054
000070 41 5d 10 be 48 de 22 3c ec 26 0c 3f 1d 55 0d bf
       -0.14098074 0.009940691 0.5474689 -0.55208
000080 58 e0 40 3f 3e f6 4d bf 5c d9 2c bf be d5 f0 3e
       0.7534232 -0.8045386 -0.67519164 0.47038072
000090 6d 94 ef 3e 01 bc e8 be b4 46 1a bf fa 7e f8 3e
       0.46792927 -0.45455936 -0.60264134 0.48534375
0000a0 da c3 28 3f 5f 04 80 bd 8b e8 df 3e 00 db 08 3f
       0.65923846 -0.06250834 0.43732104 0.5345917
0000b0 9a de 9f be f9 18 d0 be 87 ea df 3e b6 63 d6 be
       -0.3122452 -0.40644053 0.43733618 -0.41872948

0.bias f4 [16]
000000 ea 2b 5d bf 41 6b ba 3e 73 f9 89 bf e5 3c 0c bf
       -0.8639513 0.36409953 -1.0779251 -0.5478042
000010 23 7b b3 bf a1 6e 0e bf ec dc de 3e 28 4d aa bf
       -1.4021953 -0.55637556 0.43527925 -1.3304796
000020 21 43 9a 3f 45 1f 8f 3f 8f 25 19 be 34 ac 71 bf
       1.2051736 1.1181418 -0.14955734 -0.94403386
000030 ac d3 ed be 87 20 6d bf 02 2f f7 bd 4c 0b 34 be
       -0.46450555 -0.9262776 -0.12069513 -0.17582434

2.weight f4 [16, 16]
000000 16 d5 5f be 1f 38 85 be ee b7 d0 bd 93 ef 91 3d
       -0.2185863 -0.2601938 -0.10191332 0.07125773
000010 af d1 a5 be 0e 60 4c be 9a 63 10 3e 7e de 25 3e
       -0.32386538 -0.19958517 0.14100495 0.16198155
000020 9e 20 92 3e 28 32 fd bc d3 49 e4 3e fb 52 34 bf
       0.2854051 -0.030907705 0.44587573 -0.7043912
000030 05 cf 4d 3e 5f 6a 64 bc bf 34 66 3e d2 bf f6 bd
       0.20098503 -0.0139413765 0.22481059 -0.120483056
000040 98 a4 a4 bd 40 04 d5 be aa f0 98 be cb 2d 97 be
       -0.08039206 -0.41604805 -0.29871112 -0.29527125
000050 2b 48 ac 3e 6f 4d 3a be 11 49 13 be 10 a8 f8 3e
       0.3364881 -0.18193601 -0.14383341 0.48565722
000060 55 91 1c bf c8 40 28 bf 82 1b 87 3c 2a 10 8f be
       -0.6115926 -0.6572385 0.016492609 -0.2794202
000070 43 31 14 3e eb 2a be 3e d0 3f 81 3c e4 1c 8a 3e
       0.14471917 0.3714212 0.015777498 0.26975167
000080 a8 89 a4 be 06 b4 85 3e 41 f0 98 3e 8d 55 7b 3d
       -0.32136273 0.2611391 0.298708 0.061360884
000090 e5 0b 40 be f4 eb 4a be c5 a3 29 3d 13 e4 a4 be
       -0.18754537 -0.19816571 0.04141595 -0.32205257
0000a0 15 9a 3f 3d 8d 89 0d 3f c9 e5 cb be d9 55 16 bf
       0.046777803 0.5528801 -0.3982375 -0.58724743
0000b0 30 61 6b be b5 f6 f8 3d 1b 4b e3 3e 4d de 58 be
       -0.22986293 0.12156431 0.44393238 -0.21178551
0000c0 10 44 c2 3b e0 99 62 3e 03 fa 14 bf 95 d6 8b 3c
       0.005928524 0.22129011 -0.5819399 0.017070094
0000d0 82 8a 63 bd af d3 e0 bc b7 31 a4 be d1 44 80 be
       -0.055552013 -0.027444689 -0.3206918 -0.25052503
0000e0 6c a2 b1 3e 27 38 03 be 1d 5b c5 be 6b d2 07 be
       0.3469423 -0.12814389 -0.38546076 -0.13263862
0000f0 76 30 37 be 66 1b bb be d8 5f 2d be 9a ba 2d 3e
       -0.1788958 -0.3654434 -0.16931093 0.16965714
000100 dc ee c4 be 7b 8a 08 be f2 0b f0 3e b8 4c 9c be
       -0.38463485 -0.13334076 0.46884114 -0.30527282
000110 57 ba 2c 3e 4d 3f cd be ac 2a 5d 3e a7 11 4b be
       0.16867958 -0.40087357 0.2159831 -0.19830953
000120 92 32 62 bf 17 b4 8a 3d f7 3a b2 3d 90 af 64 be
       -0.88358414 0.06772631 0.08702653 -0.22332597
000130 7d 69 ea bd 88 51 da 3d 3c b6 09 be 0c 37 33 be
       -0.114459015 0.10660082 -0.13448423 -0.17501467
000140 c2 fa 88 3e b4 e6 97 bd ac 1c d2 3e 7d ac e4 3e
       0.26753813 -0.0741705 0.410375 0.44662848
000150 6f 0f 2d 3e 2a 48 b7 3e e0 48 c1 bd 89 94 b3 bd
       0.16900419 0.35797244 -0.09437728 -0.08768565
000160 1a 40 a2 be 9d f2 b6 be 96 08 b8 3e 65 5a a9 3e
       -0.3168953 -0.35731974 0.3594405 0.33076778
000170 8f d2 23 bd 03 83 ba 3e 07 37 2d bd 00 37 84 be
       -0.039995726 0.3642808 -0.042288806 -0.25823212
000180 2f 11 3d 3e 7c c6 0f 3f 4e 64 34 3e bd e2 40 be
       0.18463586 0.5616224 0.17616388 -0.18836494
000190 4b fd bc be 96 2b 92 be 0c d6 89 3e 52 1b 16 3d
       -0.36911997 -0.28548878 0.26921117 0.03664715
0001a0 3f dd 47 3c 25 09 03 be 83 14 c8 be 10 7a 46 be
       0.012198745 -0.12796457 -0.3907815 -0.193825
0001b0 09 b6 a8 be 23 93 de bc 0c ec a0 3d bc e6 be 3e
       -0.32951382 -0.02716977 0.07857522 0.3728541
0001c0 eb 9c 27 be 51 c6 91 3e c5 c4 f0 be 20 7b ec 3d
       -0.16368453 0.28471616 -0.47025123 0.11546922
0001d0 e3 39 ce be d1 95 ae be ae bf 9f 3d 1b 7d 53 bd
       -0.4027854 -0.34098676 0.07800232 -0.05163298
0001e0 65 13 7b 3e 15 9c b8 3e 9d 72 b1 3d 39 54 88 3e
       0.24519117 0.3605658 0.08664439 0.26626757
0001f0 6b 53 21 3d 58 f3 0c 3d 53 2b 6b bf 4a f7 b1 be
       0.039386194 0.03441176 -0.9186298 -0.3475898
000200 2c e5 4f 3d 77 73 45 be 68 4c 8b 3e 6d 53 04 3c
       0.050755665 -0.19282328 0.2720673 0.008076531
000210 ec 5c bc be b7 ba e4 3d 7d 65 ea 3b 9c 3d 29 bd
       -0.36789644 0.111684255 0.0071532116 -0.04131852
000220 50 bd 54 3d 1e 6e 94 3e 5f a5 04 3f f2 73 72 3e
       0.051938355 0.28990263 0.51814836 0.23677042
000230 f8 fc 13 3e 9f a8 bd be 21 6d c1 be b6 5f a4 be
       0.14451969 -0.3704271 -0.3777857 -0.32104272
000240 db 0d aa be 93 ce ee 3d 89 a0 44 be b8 ca 4a be
       -0.33213696 0.11660495 -0.19201864 -0.19803894
000250 94 6f ca be 2d 3d fa be b7 74 6b be 75 5e 2e be
       -0.39538252 -0.48874798 -0.22993742 -0.1702822
000260 08 68 6b 3e 15 50 bc 3e 2c 94 08 3e 84 97 b7 be
       0.22988904 0.36779848 0.13337773 -0.35857785
000270 8b f5 a3 3e f0 2a 1f bf a6 b8 be bb db 09 2b bd
       0.32023272 -0.6217489 -0.0058203517 -0.041757446
000280 2d 9a c8 be 5b 9c 42 3e 2a 78 00 3f 76 db bf bd
       -0.39180127 0.19004957 0.50183356 -0.09368031
000290 ff ff 0f bf 06 58 87 bd 8f 61 14 3f 91 a3 aa bf
       -0.56249994 -0.06608586 0.5796136 -1.3331167
0002a0 e8 a1 39 3e d0 36 58 be ac ce b0 be b4 26 0b bf
       0.18128169 -0.2111466 -0.34532678 -0.5435593
0002b0 43 20 c1 bc 8e fd 63 be fb 69 46 bd 52 1b ba be
       -0.023574954 -0.22264692 -0.048440915 -0.3634897
0002c0 b7 b6 62 3c 44 a4 36 bd 67 49 72 3e a6 e4 5c be
       0.013837508 -0.04459025 0.23660813 -0.21571597
0002d0 91 75 77 3e 51 d8 9d bd 75 bf 90 3e 36 2e d5 bd
       0.24165942 -0.07707275 0.2827107 -0.10409205
0002e0 21 86 cb 3b 78 8d 6d 3e e1 fd 32 3f 39 3c cd 3c
       0.006211058 0.23198497 0.6991864 0.02505313
0002f0 68 96 b9 bd c3 e4 8c bc c6 b6 0b 3e 13 43 00 be
       -0.09061891 -0.017198926 0.13643941 -0.12525587
000300 38 57 40 bd a7 b1 cb be 84 c1 91 be 97 b9 8f be
       -0.04695818 -0.39783975 -0.28467953 -0.2807128
000310 2c 39 de 3b 29 84 a8 bd 3a de 14 be 46 48 40 be
       0.0067817178 -0.082283325 -0.14537898 -0.1877757
000320 e5 2a fa 3e 91 08 8b 3e 72 56 b8 3e 02 ab 4e be
       0.4886085 0.27154973 0.36003453 -0.20182422
000330 39 e9 f3 3d 56 81 04 3e 2c 44 cf be cf 81 8e bd
       0.11909718 0.12939963 -0.404817 -0.06958353
000340 22 cf 07 3c 74 9e dc 3e 69 ec 5b bd c1 bb 82 3e
       0.00828913 0.4308964 -0.053692255 0.2553387
000350 12 25 28 3d 0e 02 ae be d4 c3 6e 3d f1 e5 b2 3e
       0.041050978 -0.33985943 0.058292225 0.34941056
000360 14 35 8b 3e a6 b3 3e 3e 56 36 e4 be 6a 5b e2 bd
       0.27188933 0.18623218 -0.44572705 -0.11052592
000370 15 df c1 bc bf e2 9c 3e 4f 46 e8 bb ce 16 16 3f
       -0.023665944 0.30641744 -0.0070884596 0.5862855
000380 7c 20 23 bd 70 4d 09 3d 89 a1 07 bf db 21 84 be
       -0.0398259 0.033521116 -0.5298086 -0.2580708
000390 90 60 a5 be b1 c7 13 bd 9a 7c 5b 3e d2 77 5c 3e
       -0.32300234 -0.036079112 0.2143425 0.21530083
0003a0 43 51 89 3e 76 76 16 be 43 23 3d 3e 6d e4 2a bf
       0.2681981 -0.14693627 0.18470483 -0.667548
0003b0 62 c8 3a 3e 0b e2 99 3c 1d 83 67 3e cf 7a 0c 3e
       0.18240502 0.018784543 0.2260861 0.13718723
0003c0 bb fb be be ce 0b 33 3d fc 87 ad be 1c a4 1d bd
       -0.3730143 0.04371243 -0.3389281 -0.038486585
0003d0 0f 03 6e bf ab a9 1e bf 09 20 bf 3e ca 98 28 bd
       -0.9297342 -0.6197764 0.37329128 -0.041161336
0003e0 a7 3d 0c 3f 3c 24 e7 3e f5 f6 25 3d 49 f4 1a bf
       0.54781574 0.45144832 0.04051872 -0.60529
0003f0 28 31 15 3d 85 88 1d bf dd d5 32 be a3 a0 cb bd
       0.036423832 -0.6153644 -0.17464395 -0.099427484

2.bias f4 [16]
000000 8c 80 4e 3d 47 95 e4 be e6 c9 15 3f f3 2a 1c 3f
       0.05041556 -0.4464514 0.585112 0.61003035
000010 29 62 7d 3d 43 cd 43 bf 20 25 76 3e 7b f7 5d 3f
       0.06186119 -0.7648508 0.240376 0.8670575
000020 57 cf 1a 3e 50 8e e4 3e 62 4b 23 3f 58 9f 9a 3d
       0.15118156 0.44639826 0.637869 0.07549924
000030 2c f2 a1 3e a4 f0 19 bd 1e 64 39 3e e4 d7 6d 3f
       0.31630075 -0.03758301 0.18104598 0.9290755

4.weight f4 [5, 16]
000000 5f 50 8e be b8 5e 4d 3c a3 00 a3 be 9b c2 2a 3e
       -0.27795693 0.01253479 -0.31836423 0.16675799
000010 8e ac 34 3e 4f 0a 2d 3e 05 4b 1f 3e 40 4b 05 3f
       0.1764395 0.16898464 0.15555961 0.5206795
000020 7a eb 69 bd 7a 9c 7d 3d b8 a5 16 be 92 fb e3 bd
       -0.057109334 0.061916806 -0.14711654 -0.111319676
000030 d3 98 9a 3d 15 9f 41 be ae 9b 52 be 2c c5 f2 3d
       0.0754868 -0.18908341 -0.205672 0.11854014
000040 92 ca 92 be 7e 5f 18 3e 4c 29 53 be bf 22 e9 3d
       -0.28670174 0.14880177 -0.20621222 0.113835804
000050 91 de 2c 3d b4 dd fc bb 70 bf df 3d b6 b5 c2 3e
       0.042204443 -0.0077168588 0.10925186 0.3802926
000060 94 3a 98 bd 59 f4 ca 3d b4 60 e2 bd 08 b5 8b bc
       -0.07433048 0.09909887 -0.11053601 -0.017054096
000070 18 2c 89 3d 55 18 24 be 32 8a 11 be 0f 37 8f 3d
       0.06697863 -0.16024907 -0.14212874 0.069929235
000080 e3 cd 50 bc fb 50 72 bd 3e e2 90 bc 33 07 e1 bd
       -0.0127444 -0.05915926 -0.017686006 -0.10987701
000090 70 0b c6 bb 89 00 1a 3d 50 9c 6d 3c 78 bf f3 3c
       -0.006043844 0.037598167 0.0145026 0.029754385
0000a0 b3 5d 68 bd 6f 6d 7b be 57 0e ce 3b 07 d8 85 3c
       -0.056729984 -0.24553464 0.0062883305 0.016338361
0000b0 58 95 00 bd 11 b1 91 bb b9 10 24 bd 47 b8 b1 3e
       -0.031392425 -0.004446157 -0.04005501 0.34710905
0000c0 3a 9d e2 be 77 14 99 3c 83 e9 09 3e 13 20 a8 3e
       -0.4426058 0.018686516 0.13467984 0.3283697
0000d0 40 89 9b be f5 52 8e be f7 70 b4 3e 43 16 85 bb
       -0.3037815 -0.27797666 0.35242435 -0.0040614917
0000e0 e2 ca 8a be df 82 65 be 0c 1f a7 3e a1 b7 b8 be
       -0.27107912 -0.22413205 0.32640874 -0.36077598
0000f0 bf bb cb be 8f ad cd 3e 60 41 1c bd 4a b8 c0 3e
       -0.39791676 0.40171477 -0.038148284 0.376406
000100 8e 10 a9 3e 87 db 66 3f 7e fd de be 09 e4 89 3e
       0.33020443 0.9017872 -0.43552774 0.2693179
000110 cc 95 a8 be 00 9f 72 bf 61 dd bb be a0 a1 9b 3e
       -0.32926786 -0.94773865 -0.36692336 0.30396748
000120 16 96 02 3e 0e 9c 02 3f a6 4e 80 bf 91 c6 02 be
       0.12752566 0.5101937 -1.0024002 -0.1277106
000130 6a 07 a6 3e 6a 26 69 3e 5e ee c6 3e 8f d6 7d 3f
       0.3242753 0.2276856 0.38853735 0.99155515

4.bias f4 [5]
000000 9a f5 99 3e 87 21 90 3e 71 61 1a 3e 43 c2 34 3e
       0.30070192 0.2815058 0.15076233 0.1765223
000010 2f 07 0f be
       -0.13967584

weight f4 [3, 4]
000000 6c fd b6 bf b1 d7 d1 3f fc 0a ee 3f 5f b3 69 c0
       -1.4296088 1.6393949 1.8597102 -3.651573
000010 39 fc 81 bf 10 fb 94 3f ec 5c ae 3f fd 02 72 40
       -1.0155097 1.1639118 1.3622108 3.7814324
000020 12 a6 6a 3f 37 f6 87 bf 46 42 ad bf 3e f7 ee bf
       0.91659653 -1.0622014 -1.353585 -1.8669202
