weights/MPC_Pendulum-v0.pt (torch_old, 12776 bytes, 13 tensors)

0.weight f4 [32, 3]
0	0xbf04b712	-0.51841843
1	0x3e49eb71	0.1971872
2	0x3dbf1994	0.093310505
3	0x3e31d584	0.17366606
4	0xbf2628cc	-0.64906
5	0xbe2483ad	-0.16065855
6	0x3bbecbc4	0.0058226306
7	0xbe6834a4	-0.22676331
8	0xbf02ba24	-0.5106528
9	0xbefba014	-0.49145567
10	0x3f0cfe93	0.5507595
11	0xbe8c4271	-0.2739444
12	0x3ecbe913	0.3982626
13	0x3eecbacc	0.46236265
14	0xbf11e422	-0.5698873
15	0xbf212b47	-0.6295666
16	0x3c8dc621	0.01730639
17	0x3debb0da	0.11508341
18	0xbf226336	-0.63432634
19	0xbf036452	-0.5132495
20	0xbc5ec789	-0.013597378
21	0x3ec7dd92	0.39036232
22	0xbf01eaaa	-0.50748694
23	0xbe46a567	-0.19399033
24	0x3e9d3953	0.30707797
25	0xbe8c23ee	-0.27371162
26	0xbf989946	-1.1921775
27	0x3e2ff897	0.17184673
28	0x3e3edd09	0.18639006
29	0x3ef9de9c	0.4880265
30	0x3f36972e	0.7132443
31	0x3f195576	0.5989603
32	0x3dd8d8be	0.10588215
33	0x3c92045a	0.01782434
34	0x3e712df4	0.23552686
35	0x3f965685	1.1745154
36	0xbf17f133	-0.59352416
37	0x3e1489a6	0.14505634
38	0x3f89fff7	1.0781239
39	0x3f1617dc	0.58630157
40	0xbf085e6a	-0.53269064
41	0x3f06c6ba	0.5264698
42	0xbdf86232	-0.12128104
43	0xbf020348	-0.50786257
44	0x3e95b23c	0.29237545
45	0x3eada030	0.33911276
46	0x3f056bc0	0.5211754
47	0xbf49117e	-0.78542316
48	0x3e827183	0.25477228
49	0x3e941ac3	0.28926668
50	0xbe1f5fd1	-0.15563895
51	0x3da86dce	0.082240686
52	0xbc101b91	-0.008795635
53	0x3e8ebbe2	0.27877718
54	0x3ec86c3c	0.39145076
55	0xbf12f1c9	-0.57400185
56	0xbd976ef8	-0.073942125
57	0x3e95163b	0.29118523
58	0x3d32f022	0.04368604
59	0x3f3241fe	0.69631946
60	0x3f7863e0	0.970274
61	0x3e691d7e	0.22765157
62	0x3d185a23	0.037195336
63	0xbef2931d	-0.47377864
64	0xbdcb3ec5	-0.09924082
65	0xbf187e4a	-0.595677
66	0x3eeb92c3	0.46010408
67	0x3f21e7af	0.63244146
68	0x3dae1f3f	0.085020535
69	0xbce5652f	-0.02800235
70	0x3e6ce6d7	0.23134933
71	0x3f85367e	1.0407255
72	0x3f4e4780	0.8057785
73	0xbeb62b58	-0.35579944
74	0x3da17181	0.07882977
75	0x3ece067d	0.40239325
76	0x3e91d1db	0.2848042
77	0x3f3cfead	0.73826104
78	0xbe1d3e6e	-0.15355846
79	0x3e4c98fb	0.19980232
80	0xbfa0342a	-1.2515919
81	0xbd0043aa	-0.03131453
82	0xbd413546	-0.047169946
83	0x3f84c42d	1.0372368
84	0x3d2b5a4c	0.04183416
85	0x3f0dbf26	0.55369794
86	0x3f82b346	1.021096
87	0xbf03586d	-0.513068
88	0xbe2107ec	-0.15725678
89	0x3f310cda	0.69160235
90	0xbf20b9ee	-0.62783706
91	0x3eb493e0	0.3526907
92	0xbf182980	-0.59438324
93	0x3eb608bc	0.3555354
94	0x3eeb0a5d	0.45906344
95	0xbf2aaf45	-0.6667369

0.bias f4 [32]
0	0x3f0e93ac	0.5569408
1	0x3d108808	0.03528598
2	0x3ec63840	0.3871479
3	0xbe7301b7	-0.23731123
4	0x3e2a25d9	0.16616
5	0x3dde17c2	0.10844375
6	0x3e89690e	0.26837963
7	0x3f1bcd62	0.60860264
8	0xbf2b712c	-0.6696956
9	0x3ef849ee	0.48493904
10	0xbe5baa29	-0.2145163
11	0x3d4a5a85	0.049402732
12	0xbf390b83	-0.7228319
13	0xbf0adadc	-0.542402
14	0xbda10409	-0.07862098
15	0xbe3fc1e5	-0.18726309
16	0x3f0d8d17	0.5529341
17	0x3f1059d3	0.5638706
18	0xbe7d6675	-0.24746116
19	0x3f0333e5	0.5125106
20	0xbeeea5e0	-0.46610928
21	0x3e1e8dc2	0.15483764
22	0x3eb93ce6	0.36179274
23	0x3cf9625b	0.030442407
24	0xbefff15f	-0.4998884
25	0xbaea619f	-0.0017881877
26	0xbe9df7ca	-0.3085311
27	0xbe1b02ab	-0.15137736
28	0xbe464427	-0.19361936
29	0x3ee36c00	0.44418335
30	0xbe8900ca	-0.26758415
31	0xbed6ad6d	-0.41929188

2.weight f4 [32, 32]
0	0x3b2212a1	0.0024730342
1	0x3e0f71b0	0.14008212
2	0xbdc201de	-0.094730124
3	0xbda848b4	-0.08216992
4	0xbd3a6332	-0.045504756
5	0xbeb3a3ee	-0.35086006
6	0xbe15c3f4	-0.14625531
7	0x3d33bbac	0.04388015
8	0x3f04d240	0.51883316
9	0x3d956aec	0.07295784
10	0x3dca319b	0.09872743
11	0x3eb11b88	0.34591317
12	0xbe81cb6c	-0.2535051
13	0xbe4d99f1	-0.20078255
14	0xbd3d278d	-0.046180297
15	0xbe876a16	-0.26448125
16	0x3e564785	0.2092572
17	0x3dd81d9b	0.10552522
18	0x3e2090aa	0.15680185
19	0xbd817af7	-0.06322282
20	0x3eba5350	0.36391687
21	0xbe2c21cd	-0.16809769
22	0x3dc5a2e2	0.09650208
23	0x3da9ddbc	0.082942456
24	0x3e4129d8	0.18863618
25	0x3c8080a7	0.015686346
26	0xb91be34f	-0.00014866631
27	0x3cbcd142	0.023049
28	0x3e9e55a3	0.3092471
29	0xbea446f1	-0.32085374
30	0xbe900efd	-0.28136435
31	0xbeb0f2bc	-0.34560192
32	0xbcc06024	-0.023483343
33	0x3df4c4fa	0.11951633
34	0x3dd7ba29	0.10533554
35	0x3e657e50	0.22411466
36	0x3e4f277e	0.20229909
37	0xbe41a9bd	-0.18912406
38	0xbb7059a3	-0.0036674521
39	0xbe4755e2	-0.19466355
40	0xbf013d62	-0.5048429
41	0xbe72d5f4	-0.23714429
42	0x3eb20627	0.3477032
43	0xbf07825d	-0.52933294
44	0xbec86643	-0.3914052
45	0xbe33894f	-0.17532848
46	0x3e7e2c6c	0.24821633
47	0x3dc2d476	0.0951318
48	0xbddbe1c1	-0.107364185
49	0xbe06c5e3	-0.13161425
50	0xbe554873	-0.20828418
51	0x3b5d1e35	0.0033739929
52	0x3d83c8b2	0.06434764
53	0x3ca82ac2	0.020528201
54	0x3e4a6f72	0.19769076
55	0xbe2d80bc	-0.1694364
56	0xbdac8d03	-0.08425333
57	0xbc4d7ae4	-0.012541506
58	0x3f0b242c	0.5435207
59	0xbf05d2ba	-0.5227467
60	0xbe5aba07	-0.21360026
61	0xbf10ff7e	-0.5663985
62	0x3ee23b4a	0.4418586
63	0x3d9aa788	0.07551485
64	0xbdb68b20	-0.08913255
65	0x3ddabd5a	0.10680647
66	0xbd9d8cfa	-0.07692905
67	0x3e2a565e	0.16634509
68	0x3d0bc224	0.034120694
69	0x3d8ef693	0.06980624
70	0xbd8afc41	-0.06786395
71	0x3e33f033	0.17572097
72	0x3e5f5e5a	0.21813336
73	0x3d95e529	0.073190995
74	0x3e741046	0.23834333
75	0xbe2ebaca	-0.17063442
76	0xbf3e54b0	-0.7434797
77	0xbdb02bc1	-0.086020954
78	0x3c9a51bb	0.0188378
79	0xbd9de2ae	-0.07709251
80	0x3e0f15e8	0.139732
81	0x3ded03e0	0.11573005
82	0x3e8d3234	0.27577364
83	0x3e51db79	0.20493878
84	0x3ea0c2ed	0.31398717
85	0x3e08d4ed	0.13362475
86	0x3d9fe52a	0.078073815
87	0xbdf76e69	-0.12081606
88	0x3e7fe4d0	0.24989629
89	0x3e1b7d6a	0.1518456
90	0x3e4cbb13	0.19993238
91	0xbf368866	-0.7130188
92	0xbee73301	-0.451561
93	0x3d0c47bf	0.03424811
94	0x3e17a08d	0.14807339
95	0x3d0a3b8b	0.03374819
96	0x3e3b9286	0.18317613
97	0x3e7c6fee	0.24652073
98	0xbdf55253	-0.11978593
99	0xbd978016	-0.07397477
100	0xbf04344e	-0.5164231
101	0x3e68c951	0.22733046
102	0x3e90661e	0.2820291
103	0x3dbb9894	0.09159961
104	0xbec3dcf0	-0.382545
105	0xbce76610	-0.02824691
106	0xbeb4c337	-0.35305187
107	0x3d9ae49b	0.07563134
108	0x3ecb4d8f	0.3970761
109	0x3dcc3d78	0.09972662
110	0x3ccd2ec2	0.02504671
111	0xbec02e8d	-0.37535515
112	0xbe9ef869	-0.31048897
113	0x3e396ea1	0.18108608
114	0x3e21b5fe	0.15792081
115	0xbbb2cdab	-0.0054566464
116	0xbe366767	-0.17812882
117	0xbdaf2dd2	-0.085536614
118	0x3c3c39a3	0.011488351
119	0x3e9649a5	0.2935306
120	0xbe80932e	-0.2511229
121	0xbddad8ab	-0.106858574
122	0xbd4d718a	-0.050157107
123	0x3f08b44c	0.5340011
124	0x3cef6eeb	0.029227694
125	0x3e759b7e	0.23985097
126	0x3e962ae3	0.29329595
127	0xbea16609	-0.3152316
128	0xbc989151	-0.01862398
129	0x3d0524ea	0.032505907
130	0x3e05c30b	0.13062684
131	0xbd8a4a74	-0.06752482
132	0x3e87d20f	0.2652745
133	0xbea8b01b	-0.32946858
134	0xbe10cce2	-0.14140657
135	0x3dd33f8e	0.103148565
136	0x3f757700	0.95884705
137	0x3da708b9	0.081559606
138	0x3e543193	0.20722036
139	0xbe2732e0	-0.16328001
140	0xbf0556b8	-0.5208545
141	0xbe0ab7f9	-0.13546742
142	0xbf2b4684	-0.66904473
143	0xbe1476e4	-0.14498478
144	0x3cd01134	0.025398828
145	0xbc5eaed8	-0.013591491
146	0xbd7bdbee	-0.06148904
147	0x3e04ae00	0.12957
148	0x3e8d9e2d	0.2765974
149	0x3d3dbc83	0.046322357
150	0x3c3ab676	0.011396041
151	0x3e28da9b	0.16489641
152	0x3cfbd2db	0.030740192
153	0x3eb4279e	0.35186476
154	0x3eed59d9	0.4635761
155	0xbe4e16b3	-0.20125847
156	0x3e97f907	0.2968218
157	0xbee5e6fc	-0.4490279
158	0xbba4b5ea	-0.0050265687
159	0xbd5d4667	-0.05402222
160	0xbdf351b0	-0.11880815
161	0x3ea2e903	0.318184
162	0x3e683094	0.22674781
163	0x3ca76179	0.02043222
164	0x3e583dfb	0.21117394
165	0xbdad21e1	-0.084537275
166	0x3c43b308	0.01194454
167	0x3e8743b0	0.2641883
168	0xbdf638f7	-0.12022584
169	0x3cad5054	0.021156467
170	0x3e7572bb	0.23969547
171	0xbff31f42	-1.8993914
172	0xbf32782e	-0.6971463
173	0x3e7a9c5e	0.24473712
174	0x3e8fe24b	0.28102335
175	0x3e761cf1	0.24034478
176	0x3e37b345	0.1793948
177	0x3da813e4	0.08206919
178	0x3e218361	0.15772773
179	0x3e04c457	0.12965523
180	0xbe8ee285	-0.27907196
181	0x3c81d19b	0.015847018
182	0x3c84534f	0.016153006
183	0xbfd102f3	-1.6329025
184	0xbdc33a4b	-0.09532603
185	0xbe9eb5d2	-0.30998093
186	0x3ec1311d	0.37732783
187	0xbf8b8db0	-1.0902615
188	0xbf15dab9	-0.5853687
189	0xbd862df8	-0.065517366
190	0xbdb73b92	-0.08946909
191	0x3ea09576	0.3136403
192	0x3e08b0db	0.13348715
193	0x3cd57627	0.026057316
194	0x3e726f7d	0.23675342
195	0xbd438349	-0.047732625
196	0xbe18974a	-0.14901462
197	0xbd553209	-0.05204967
198	0x3e28fffc	0.165039
199	0x3e4a4106	0.19751367
200	0xbcaf82fd	-0.021424765
201	0xbec0db16	-0.3766715
202	0x3e1ce5d2	0.15322044
203	0xbe7cb230	-0.24677348
204	0xbea8148a	-0.3282817
205	0x3e014702	0.12624744
206	0xbe48e4e4	-0.19618565
207	0x3d618a4e	0.05506354
208	0xbe2b868a	-0.16750541
209	0x3d7a601f	0.061126824
210	0x3e327f6d	0.17431422
211	0xbea736fb	-0.32659134
212	0xbe13e1d7	-0.1444162
213	0x3b753e38	0.0037421118
214	0xbe132dc1	-0.14372922
215	0xbe81a11f	-0.25318238
216	0xbe73e3ae	-0.23817322
217	0x3d7c5b51	0.061610524
218	0x3e476764	0.19473034
219	0xbc7aa547	-0.015298194
220	0xbcc760c1	-0.024338128
221	0x3de48fb9	0.111602254
222	0xbd77845b	-0.06042896
223	0x3e4156e6	0.18880805
224	0xbdd6e0a4	-0.104920655
225	0x3e08d305	0.13361748
226	0x3dacb676	0.08433239
227	0xbe8b85f9	-0.2725065
228	0x3e6cfba6	0.23142871
229	0xbf171d47	-0.5902905
230	0xbe705273	-0.23468952
231	0xbbcbf3e5	-0.006224143
232	0x3f2f8953	0.68568915
233	0x3d0b61c2	0.034028776
234	0xbd3dc840	-0.04633355
235	0x3f1ea02e	0.61963165
236	0xbe83e03d	-0.25757018
237	0x3e0a9cb7	0.13536344
238	0x3e011e9d	0.12609334
239	0x3c72bf13	0.014816063
240	0xbe1f245a	-0.15541211
241	0xbde130ca	-0.10995634
242	0x3e1de86b	0.15420692
243	0x3de0b887	0.10972696
244	0xbdc972d8	-0.09836358
245	0x3de5c3d3	0.11218991
246	0xbdf784a4	-0.12085846
247	0x3edd0a95	0.43172136
248	0x3e9e2ed5	0.30895105
249	0x3c9e08db	0.019291332
250	0x3ee673ff	0.45010373
251	0x3f565e4e	0.8373765
252	0x3e89bd09	0.26902035
253	0xbe1d4b06	-0.1536065
254	0xbdd6b470	-0.104836345
255	0xbd2e2ddd	-0.042524207

2.bias f4 [32]
0	0xbe4a223b	-0.1973962
1	0xbe52a8ea	-0.20572248
2	0xbcabcf6d	-0.020972932
3	0x3ceb3af2	0.02871463
4	0x3d9ac314	0.075567394
5	0x3e3fb69a	0.18722
6	0xbdf62f0a	-0.12020691
7	0xbb2734c5	-0.002551363
8	0x3cbb1772	0.022838328
9	0x3e2ef6b2	0.17086294
10	0x3e06c620	0.13161516
11	0xbeabd3e6	-0.33560103
12	0x3de70694	0.112805516
13	0x3e38239a	0.17982331
14	0x3de1f5a6	0.11033182
15	0x3e035647	0.12825881
16	0x3c073b79	0.0082539255
17	0x3d732c1e	0.059368245
18	0x3df1bdf9	0.118038125
19	0xbe997485	-0.2997171
20	0x3ded6f38	0.11593479
21	0x3d68cedc	0.0568379
22	0x3e6930d6	0.22772536
23	0xbd0d7c35	-0.03454228
24	0x3c3bacb0	0.011454746
25	0x3d8c999c	0.06865236
26	0x3e4024b3	0.18764
27	0x3dca781b	0.098861896
28	0x3d0a2bb8	0.0337331
29	0x3cc314e0	0.023813665
30	0x3dc94f8d	0.09829626
31	0xbe28aa6e	-0.16471264

4.weight f4 [3, 32]
0	0x3c9f0c69	0.019415097
1	0xbf9572ad	-1.1675621
2	0xbec401ea	-0.3828271
3	0x3e6c2274	0.23060018
4	0xbd8b66ef	-0.068067424
5	0xbedadf96	-0.42748708
6	0xbdade26c	-0.08490452
7	0x3ee0d91c	0.4391564
8	0xbe3da89c	-0.1852135
9	0xbe8886b2	-0.26665264
10	0x3d76b23c	0.06022857
11	0x3f8384e7	1.0274934
12	0xbce7f614	-0.028315581
13	0x3e2f6fdb	0.17132513
14	0x3e34986b	0.17636268
15	0xbe439cac	-0.19102734
16	0xbdca89ee	-0.09889589
17	0xbd72bb89	-0.05926088
18	0x3e09e2a1	0.13465358
19	0x3e81c8e3	0.25348577
20	0x3c9d7cf9	0.01922463
21	0xbe52f982	-0.20602992
22	0x3e757ca5	0.2397333
23	0x3bf7c600	0.0075614452
24	0xbe775386	-0.24152955
25	0x3e82ad20	0.2552271
26	0xbd024abc	-0.031809554
27	0x3d20e795	0.039283354
28	0xbdb8bef2	-0.09020795
29	0x3e958f2d	0.29210797
30	0x3e79f867	0.24411164
31	0xbda6e75e	-0.081495985
32	0xbebdfbd6	-0.37106198
33	0xbdb19ca0	-0.08672452
34	0x3e0519a5	0.12998064
35	0x3ded8216	0.115970775
36	0xbec8ba13	-0.39204463
37	0x3df5ac1e	0.119957194
38	0x3e704a2d	0.23465796
39	0xbd4a11ba	-0.04933331
40	0xbdb743ac	-0.08948454
41	0x3d889739	0.066694684
42	0xbe909e82	-0.28245932
43	0x3dc866e7	0.09785252
44	0x3e2be048	0.16784775
45	0xbe48f77b	-0.19625656
46	0x3e37ed8f	0.17961715
47	0x3ab3b3e4	0.0013710228
48	0x3ed7c317	0.4214103
49	0xbe6973be	-0.22798058
50	0x3e86bc74	0.26315653
51	0xbe246bb7	-0.16056715
52	0xbd592f63	-0.053023707
53	0x3e3a4c25	0.1819311
54	0x3e01f63a	0.12691584
55	0x3ed3035c	0.412135
56	0xbc9cf204	-0.01915837
57	0xbd43651c	-0.047703847
58	0xbe9acfb4	-0.3023659
59	0x3e15e014	0.1463626
60	0x3ec1f7ef	0.3788447
61	0xbdddfa93	-0.10838809
62	0x3e64adcd	0.22331925
63	0xbefe3fd9	-0.49658087
64	0xbd2d3e38	-0.042295665
65	0x3d842d92	0.06454004
66	0xbdaf308a	-0.0855418
67	0x3e6ddb33	0.23228149
68	0xbe9fd70b	-0.31218752
69	0xbef83f8a	-0.48485976
70	0xbde7b698	-0.11314124
71	0xbe71874a	-0.23586765
72	0x3e1c4139	0.15259255
73	0xbe2ed501	-0.17073442
74	0x3e28bc82	0.1647816
75	0xbeee442e	-0.46536392
76	0xbe4d2afb	-0.20035927
77	0xbe5d2e66	-0.21599731
78	0x3e316a53	0.17325716
79	0x3e62fbef	0.22166418
80	0xbd99a7fc	-0.075027436
81	0x3e83e094	0.25757277
82	0x3e870dc9	0.26377705
83	0xbfb18a52	-1.3870337
84	0x3e7f7631	0.2494743
85	0x3e8e8fca	0.27844077
86	0xbcdc3a5a	-0.026883293
87	0xbe1cb955	-0.15305074
88	0xbe81a335	-0.2531983
89	0xbd8e44ed	-0.0694674
90	0x3c0f3a24	0.008741889
91	0x3c29ace4	0.010356162
92	0xbe2df4eb	-0.1698796
93	0x3ef6e52d	0.48221722
94	0xbd7e46a7	-0.062079098
95	0xbe12a657	-0.14321266

4.bias f4 [3]
0	0xbd97bc02	-0.074089065
1	0xbcf1a62a	-0.029498179
2	0x3e0767a6	0.13223132

0.weight f4 [32, 3]
0	0xbf01870d	-0.50596696
1	0xbe062555	-0.13100179
2	0x3ecbe909	0.3982623
3	0x3f17d107	0.59303325
4	0x3f16eb28	0.5895257
5	0x3ca1899d	0.01971894
6	0xbe8d7d5c	-0.27634704
7	0xbe105dc6	-0.14098272
8	0xbf46dcf5	-0.77680904
9	0xbf49b43b	-0.78790635
10	0x3e8ab481	0.2709084
11	0x3f0e859f	0.5567264
12	0x3f91d5fa	1.1393425
13	0x3e8e1dc9	0.277571
14	0xbf327eb3	-0.6972458
15	0xbf2acdb2	-0.66720116
16	0xbd10b7da	-0.035331585
17	0x3d3357de	0.04378497
18	0x3ee050b4	0.43811572
19	0x3d90f7df	0.07078528
20	0xbe347b54	-0.17625171
21	0x3f65fc6d	0.89838296
22	0x3dbdeb99	0.09273452
23	0xbf6f3e3e	-0.9345435
24	0x3e56a401	0.20961
25	0x3f899474	1.0748429
26	0x3ee868b2	0.45392376
27	0x3f4082e8	0.7519975
28	0xbea68d29	-0.32529572
29	0xbf2e3c31	-0.68060595
30	0xbeb3af28	-0.3509457
31	0x3f423f1d	0.75877553
32	0x3e83011b	0.2558678
33	0xbeea2f62	-0.45739275
34	0x3f3a86e7	0.72862095
35	0x3f62a0ce	0.8852662
36	0xbf599012	-0.8498546
37	0xbf427041	-0.75952536
38	0x3f2fd547	0.6868481
39	0x3eb03634	0.34416354
40	0xbf474af3	-0.7784874
41	0x3e923ead	0.28563443
42	0xbef67eb0	-0.4814353
43	0x3e907c98	0.28220057
44	0xbeb14d86	-0.34629458
45	0x3ed043c4	0.406767
46	0xbf8070e7	-1.0034455
47	0xbeab01db	-0.33399853
48	0x3ed46726	0.41484946
49	0x3f8146a4	1.0099683
50	0x3e10032b	0.14063708
51	0xbf4566e9	-0.77110153
52	0xbea8e6ba	-0.3298853
53	0x3f0e1d26	0.55513227
54	0x3f24e282	0.64408123
55	0x3edd5e98	0.43236232
56	0xbf2587f3	-0.6466057
57	0xbec9f508	-0.39444757
58	0xbf629dda	-0.8852211
59	0xbe4dd63b	-0.20101254
60	0xbe760e64	-0.24028927
61	0xbf4f80a3	-0.8105566
62	0x3f37b00c	0.71753
63	0x3ea9f116	0.33191746
64	0xbf71af64	-0.9440825
65	0xbed72046	-0.4201681
66	0x3fac34f8	1.3453665
67	0x3ec2c5dc	0.3804158
68	0xbf905600	-1.1276245
69	0x3ea942dd	0.33058825
70	0x3f2a3202	0.66482556
71	0xbf099cda	-0.5375496
72	0x3f1f10fa	0.6213528
73	0x3f8c9e73	1.0985855
74	0xbd334701	-0.043768886
75	0xbc193100	-0.009350061
76	0x3dfb8fe9	0.12283308
77	0xbf54919b	-0.83034676
78	0x3ef61ea9	0.48070267
79	0x3eb8638a	0.36013442
80	0x3d6dd30c	0.058062598
81	0x3f713815	0.942262
82	0x3f18e9d4	0.59731793
83	0xbf831c5d	-1.0243031
84	0x3ec36409	0.38162258
85	0xbefff8c6	-0.49994487
86	0xbf8bbc54	-1.0916848
87	0x3dd17f66	0.102293774
88	0xbeb85d02	-0.3600846
89	0xbf273c04	-0.6532595
90	0xbf13bade	-0.5770701
91	0x3ca71664	0.020396419
92	0xbde59391	-0.11209787
93	0x3f0d14bf	0.5510978
94	0xbee41873	-0.44549903
95	0x3efe7c34	0.49704134

0.bias f4 [32]
0	0x3e01cb4a	0.12675205
1	0x3f0bfdc8	0.54684114
2	0xbf34f674	-0.7068856
3	0x3f1485aa	0.58016455
4	0xbea7b9ce	-0.32758945
5	0x3f1f6d5d	0.6227625
6	0x3e9e0c22	0.30868632
7	0x3ecc52b5	0.3990685
8	0xbda9c94f	-0.0829035
9	0x3e4978a4	0.19674927
10	0x3e43ae8a	0.1910955
11	0x3e771485	0.24128921
12	0x3e3df546	0.18550596
13	0x3e87d01a	0.26525956
14	0xbf25be74	-0.64743733
15	0x3e2d6fcd	0.1693718
16	0xbeadb6c7	-0.3392851
17	0x3e8c9c48	0.27462983
18	0x3dc6271e	0.0967543
19	0xbefc2990	-0.4925046
20	0x3ec5c344	0.38625538
21	0xbdf2c642	-0.11854221
22	0xbb94e6ed	-0.00454413
23	0xbb9f9ad6	-0.004870753
24	0xbefdd372	-0.49575382
25	0xbf214fa4	-0.63012147
26	0x3f2b4edf	0.6691722
27	0xbdbffd16	-0.09374444
28	0xbe741038	-0.23834312
29	0x3f135580	0.5755234
30	0x3f16241c	0.5864885
31	0xbf376adc	-0.7164743

2.weight f4 [32, 32]
0	0xbf121e44	-0.5707743
1	0x3c69bd0a	0.014266262
2	0xbf3fc576	-0.74910676
3	0xbe5e2424	-0.21693474
4	0x3d922840	0.07136583
5	0x3d85ad95	0.06527249
6	0x3dc537e2	0.096297994
7	0x3ea25082	0.31702048
8	0x3e1f431f	0.15552948
9	0x3e46ba3b	0.19406979
10	0x3d137641	0.036001448
11	0xbdd523cb	-0.104072176
12	0xbf0c96f7	-0.54917854
13	0xbd273d6a	-0.040830053
14	0xbe12d77e	-0.14340016
15	0x3ec0a0b6	0.37622613
16	0xbd5701c6	-0.052491926
17	0xbe1ce0bd	-0.15320106
18	0x3da77cf2	0.08178128
19	0xbf0ca2c8	-0.54935884
20	0xbe84f76a	-0.25970012
21	0x3ef294ea	0.47379237
22	0x3ea11cc7	0.31467268
23	0xbd3cfde8	-0.04614058
24	0xbdb92dfd	-0.09041975
25	0xbe3c105d	-0.18365617
26	0x3e3a7d61	0.18211891
27	0x3e331560	0.17488623
28	0x3f0f3480	0.55939484
29	0x3e4eef13	0.20208387
30	0x3dd849d0	0.105609536
31	0xbdd67d3c	-0.10473105
32	0x3e49bfa0	0.19702005
33	0x3d2d012b	0.042237442
34	0x3e621374	0.22077733
35	0x3e96174e	0.29314655
36	0xbf2ce7b9	-0.6754108
37	0x3cffd56b	0.031229695
38	0xbe7879ac	-0.24265164
39	0xbd43cdbd	-0.04780363
40	0x3ce58c58	0.028021023
41	0xbf05b14e	-0.5222367
42	0x3e8686d3	0.26274738
43	0x3d9744f3	0.07386198
44	0xbe0157f3	-0.12631206
45	0x3d3ca90b	0.04605965
46	0xbdcab332	-0.0989746
47	0x3d1a500a	0.037673987
48	0xbc454d10	-0.012042299
49	0xbc45759a	-0.012051964
50	0x3ba9c4b1	0.005180918
51	0xbf52690e	-0.8219155
52	0x3dc7f5e5	0.097636975
53	0xbf42ede4	-0.7614424
54	0xbf6a4956	-0.9151815
55	0xbe8a7930	-0.27045584
56	0xbe8ac13a	-0.27100545
57	0x3e55da76	0.20884117
58	0xbc4f9943	-0.012670818
59	0xbec01541	-0.37516215
60	0xbeb7d68f	-0.35905883
61	0x3d484b4f	0.048899945
62	0x3e1cd709	0.15316404
63	0x3d8305f2	0.06397618
64	0x3ebb5fb6	0.3659646
65	0x3d26c2d7	0.040713158
66	0xbdd0028e	-0.10156737
67	0x3de2d4e1	0.1107576
68	0x3f484a49	0.7823835
69	0x3eb9fb8a	0.36324722
70	0x3e2e64bf	0.17030619
71	0xbc976f7e	-0.01848578
72	0xbece5e76	-0.40306443
73	0x3e0fe5ae	0.1405246
74	0xbd9d182b	-0.07670625
75	0xbf076679	-0.52890736
76	0x3eee31e1	0.4652243
77	0x3e266872	0.1625078
78	0x3eb043e2	0.3442679
79	0x3e11f84e	0.14254877
80	0x3ee10082	0.439457
81	0x3edf2ae3	0.43587407
82	0xbea9067a	-0.33012754
83	0x3e64c2da	0.22339955
84	0x3de73371	0.112891085
85	0x3e8b35b7	0.2718942
86	0x3e8841ea	0.26612788
87	0xbe971091	-0.29504827
88	0x3ecf2425	0.40457264
89	0x3ddb1192	0.10696711
90	0xbd95e9b6	-0.073199674
91	0xbf033914	-0.5125897
92	0x3e68e6f6	0.22744355
93	0xbdc7e759	-0.09760923
94	0x3e3bdc5e	0.18345782
95	0x3e5c1d72	0.21495607
96	0x3ea13f1e	0.31493467
97	0x3e650064	0.2236343
98	0x3efcde28	0.49388242
99	0x3ea38254	0.3193537
100	0xbf68e2e3	-0.909712
101	0x3e4e09a6	0.20120868
102	0x3daf5eb3	0.08562984
103	0xbe841ca9	-0.25803116
104	0xbdb55a9c	-0.08855173
105	0xbf46873e	-0.77550113
106	0xbda761fd	-0.08172987
107	0xbc744113	-0.014908093
108	0xbd41d963	-0.047326457
109	0x3db9a489	0.09064586
110	0x3c967274	0.018365122
111	0xbd833e6b	-0.0640839
112	0x3d3e41c7	0.04644945
113	0x3dece146	0.11566405
114	0xbe999449	-0.29995945
115	0xbe0e753f	-0.13911913
116	0x3e2c7f57	0.16845451
117	0xbf05aa97	-0.52213424
118	0xbf8b7fb5	-1.0898348
119	0xbeb15bbe	-0.34640306
120	0xbede8f27	-0.43468592
121	0x3e65f266	0.22455749
122	0x3dcd6083	0.10028174
123	0xbefebf78	-0.49755454
124	0xbe8ad48a	-0.2711528
125	0xbe069372	-0.13142183
126	0x3e484db0	0.19560885
127	0xbe7be184	-0.24597746
128	0xbced6ee8	-0.028983548
129	0xbbed04fa	-0.0072332593
130	0xbe1dcca7	-0.154101
131	0x3d9716b9	0.07377381
132	0xbf83f631	-1.0309507
133	0x3e6fe5bb	0.23427479
134	0x3e0f0f15	0.13970597
135	0xbeb4432e	-0.35207504
136	0x3e31a556	0.17348227
137	0xbf362780	-0.7115402
138	0x3df9163b	0.12162443
139	0xbae68596	-0.0017587419
140	0x3e83b5ee	0.2572474
141	0x3e8965e1	0.2683554
142	0xbe97634f	-0.29567954
143	0x3e2dd599	0.16976012
144	0xbeddeeff	-0.43346402
145	0x3d37abac	0.044841453
146	0xbe3713d5	-0.17878659
147	0xbe36ebd2	-0.17863396
148	0x3ec16817	0.37774727
149	0xbe97be06	-0.29637164
150	0xbedaed03	-0.4275895
151	0x3b6333e1	0.0034668373
152	0xbdf02673	-0.117260836
153	0xbf017aec	-0.5057819
154	0x3d153319	0.036425684
155	0xbe0e7b31	-0.13914181
156	0xbebe4c64	-0.37167656
157	0xbdad00df	-0.08447432
158	0x3e7ebfc3	0.24877839
159	0x3e867613	0.26261958
160	0xbe1eb955	-0.15500386
161	0xbdeb5a6f	-0.11491858
162	0xbd26d80c	-0.040733382
163	0xbe809b2f	-0.25118396
164	0x3f03469b	0.5127961
165	0x3de43471	0.11142815
166	0xbdf73edc	-0.12072536
167	0x3f00aaca	0.50260603
168	0xbe2d245e	-0.16908404
169	0x3ecbf523	0.39835462
170	0x3e8ebd33	0.27878723
171	0xbeb0b959	-0.3451641
172	0x3d85e827	0.0653842
173	0x3d5e0e8f	0.054213103
174	0x3cfa501e	0.030555781
175	0x3dafc6e2	0.08582856
176	0xbe92c2c1	-0.2866421
177	0x3e58e74d	0.21181984
178	0xbe32de64	-0.17467648
179	0xbe54c50c	-0.20778292
180	0xbe4c7ed3	-0.19970255
181	0x3e7fea85	0.24991806
182	0x3e0e1d30	0.13878322
183	0xbe605cfd	-0.21910472
184	0x3eba7cfb	0.36423478
185	0x3e8c7599	0.2743347
186	0x3e45fb3a	0.19334117
187	0xbe91444f	-0.28372428
188	0x3e88fd95	0.26755968
189	0x3e62226d	0.22083445
190	0x3e153759	0.14571895
191	0xbee37d5c	-0.4443158
192	0xbef591d0	-0.4796281
193	0x3de8e281	0.11371327
194	0x3e803ad4	0.25044882
195	0x3dbbd729	0.09171898
196	0xbe823346	-0.25429744
197	0xbe672a0d	-0.22574635
198	0x3ce3b90e	0.027798202
199	0x3df636e7	0.120221905
200	0x3ebbdd9d	0.36692515
201	0xbe5f2702	-0.21792224
202	0x3e9d4ed2	0.30724198
203	0x3ea5739e	0.3231477
204	0xbea47661	-0.32121566
205	0x3dbf69e1	0.09346367
206	0x3e876dd1	0.2645097
207	0xbdf94998	-0.1217224
208	0x3d8879e6	0.06663875
209	0xbed78ac3	-0.42098054
210	0x3db70cf7	0.0893802
211	0xbeae4f10	-0.34044695
212	0x3c1a3f4a	0.009414503
213	0xbdfc4c21	-0.12319208
214	0xbe23ef7b	-0.16009323
215	0x3e995ce2	0.29953676
216	0x3c2e368c	0.010633122
217	0xbd12ce72	-0.035841413
218	0x3e89ca51	0.26912168
219	0x3e02bc3f	0.12767123
220	0xbe06b6f7	-0.13155733
221	0xbde5ca23	-0.11220195
222	0xbda9061a	-0.08253117
223	0xbd5604f3	-0.052250814
224	0x3d990f8f	0.07473671
225	0x3da01e56	0.07818286
226	0xbf673016	-0.9030775
227	0x3e956265	0.29176632
228	0xbf65b0f4	-0.89723134
229	0x3c8915b7	0.016733987
230	0xbe839c8c	-0.25705373
231	0xbe68eb56	-0.22746024
232	0x3e951c42	0.29123122
233	0xbf56a9e8	-0.83853006
234	0x3e044caf	0.12919877
235	0x3f165562	0.58724034
236	0x3db96c81	0.090538986
237	0x3d5dd2be	0.054156058
238	0xbe332da5	-0.17497881
239	0xbec19ba2	-0.3781405
240	0x3e76876c	0.24075097
241	0xbe3ce9bc	-0.18448538
242	0x3e4dda38	0.20102775
243	0xbfa1d714	-1.2643762
244	0x3df527f4	0.11970511
245	0xbe9f2988	-0.31086373
246	0xbec94927	-0.39313623
247	0x3e347b00	0.17625046
248	0xbe3f5b7c	-0.18687242
249	0xbebd7bed	-0.3700861
250	0x3e3c3c87	0.18382464
251	0x3d48c933	0.049020004
252	0xbd881c3e	-0.06646012
253	0x3e236bad	0.15959044
254	0xbd9bbe8c	-0.07604703
255	0x3ee30b1a	0.44344407

2.bias f4 [32]
0	0x3dfa212b	0.122133575
1	0x3e8ac1dd	0.2710103
2	0xbdb2e906	-0.08735852
3	0x3e8bc59b	0.27299199
4	0x3e03ae47	0.1285945
5	0x3d5ee4c9	0.054417405
6	0x3e7674c8	0.24067986
7	0x3e0b9940	0.13632679
8	0x3e5a22c8	0.2130233
9	0x3d2ab2fa	0.04167459
10	0x3e044d3c	0.12920088
11	0x3e52ef7d	0.2059917
12	0x3df5be6e	0.11999212
13	0x3e9fc374	0.31203806
14	0x3dd795db	0.105266295
15	0xbda38863	-0.07984998
16	0x3e08387f	0.13302802
17	0xbc69f9ce	-0.0142807495
18	0x3d2326ec	0.03983204
19	0x3dbc3496	0.091897175
20	0xbd33fac1	-0.04394031
21	0x3d928652	0.07154526
22	0xbe3bc200	-0.18335724
23	0x3e6fc5d1	0.23415305
24	0xbd8c7f51	-0.06860221
25	0xbbe97294	-0.0071242545
26	0x3d2f7541	0.04283643
27	0x3e69bf8b	0.22826974
28	0xbd84b86b	-0.064804874
29	0x3db3acac	0.08773169
30	0x3e8edc8b	0.27902636
31	0xbd10008a	-0.035156764

4.weight f4 [3, 32]
0	0x3e981fd4	0.29711783
1	0xbdc7b810	-0.09751904
2	0x3f04037a	0.51567805
3	0x3dd2267e	0.10261248
4	0xbf073352	-0.52812684
5	0x3e3eacbf	0.18620585
6	0xbf055e8d	-0.520974
7	0x3c812e46	0.015769135
8	0x3dbaface	0.091298684
9	0x3dd9a689	0.10627467
10	0x3f37f9a3	0.7186529
11	0xbe35c381	-0.1775036
12	0x3e9a3d9d	0.30125132
13	0xbeabcac8	-0.33553147
14	0xbd8366bd	-0.0641608
15	0xbe1963dd	-0.14979501
16	0xbe493f86	-0.19653139
17	0xbf14288d	-0.57874376
18	0x3ee7e819	0.45294264
19	0x3bf15527	0.0073648873
20	0x3f09e15b	0.5385949
21	0x3e130972	0.14359072
22	0xbec869d2	-0.39143234
23	0xbe994534	-0.2993561
24	0xbececbee	-0.4038996
25	0x3ce24d51	0.027624758
26	0xbeaf37e7	-0.34222338
27	0xbeb60fd6	-0.35558957
28	0x3ea4147e	0.32046884
29	0xbee3ff09	-0.44530514
30	0x3e8e5529	0.27799347
31	0x3e309e1d	0.17247815
32	0x3c58281c	0.013193157
33	0x3e50952a	0.20369402
34	0x3ed1c40d	0.40969887
35	0x3effa422	0.4992991
36	0x3e954115	0.29151216
37	0x3ccc3d38	0.024931535
38	0xbe2221b5	-0.1583317
39	0xbee6f5af	-0.45109317
40	0xbe8a609d	-0.27026835
41	0x3f4b6e75	0.7946542
42	0xbe2e7939	-0.1703843
43	0xbdd66c23	-0.10469844
44	0xbe9274b4	-0.28604662
45	0x3eb4dc83	0.35324487
46	0xbea52658	-0.32255816
47	0xbe2e20ef	-0.1700475
48	0xbeba17c0	-0.36346245
49	0x3d92fe3a	0.07177396
50	0x3e2d7e84	0.16942793
51	0x3f137179	0.5759502
52	0xbef964be	-0.48709673
53	0xbeaa887d	-0.33307257
54	0xbe2edcf4	-0.17076474
55	0xbdf63120	-0.120210886
56	0xbe8af9c0	-0.2714367
57	0xbed06e30	-0.40709066
58	0xbe955726	-0.2916805
59	0xbd3247fd	-0.043525685
60	0x3ee422d8	0.44557834
61	0x3eb25f98	0.34838557
62	0xbc9a5dea	-0.01884361
63	0xbebcdd4d	-0.3688759
64	0x3ec256b1	0.37956765
65	0xbe99721e	-0.29969877
66	0x3c052d7b	0.008128519
67	0xbe4e38f6	-0.20138916
68	0x3e700210	0.23438287
69	0xbef48a9c	-0.47762
70	0x3d9895af	0.07450425
71	0xbe5d3523	-0.21602301
72	0x3ea59f4b	0.32348093
73	0xbdf9fccc	-0.1220642
74	0xbcb78479	-0.022402035
75	0x3ea276c5	0.3173124
76	0x3dc35a37	0.095386915
77	0xbe629ba1	-0.2212968
78	0x3e3d4884	0.18484694
79	0xbe92f48f	-0.28702208
80	0x3e36958b	0.17830484
81	0xbdfaa6a0	-0.122388124
82	0x3d943f1f	0.07238602
83	0x3e9e327b	0.3089789
84	0x3de2a0a4	0.11065796
85	0xbea1794b	-0.31537852
86	0x3e208a2c	0.15677708
87	0xbe2c7d8d	-0.16844769
88	0x3ed72017	0.4201667
89	0x3ea142a7	0.31496164
90	0xbdafcecf	-0.085843675
91	0xbe2b0aef	-0.1670339
92	0xbd4f500a	-0.05061344
93	0x3dcb1cb0	0.09917581
94	0xbef56d59	-0.47934988
95	0x3e9c0815	0.30474916

4.bias f4 [3]
0	0xbd923089	-0.071381636
1	0x3ca7f036	0.020500284
2	0x3e09f0c3	0.1347075

weight f4 [3, 4]
0	0x3febfa6c	1.8435798
1	0xbf828ec3	-1.0199817
2	0xbf0161ff	-0.50540155
3	0x3f01c226	0.5068687
4	0x3ffa1d0b	1.9540113
5	0xbf863e4e	-1.0487764
6	0xbf0d412c	-0.5517757
7	0xbe502ed7	-0.20330368
8	0x3fe50c77	1.7894429
9	0xbf92b6f3	-1.1462082
10	0xbed15d4a	-0.40891486
11	0x3edc6a08	0.43049645
