weights/Pendulum-v0 copy.pt (torch_old, 12466 bytes, 13 tensors)

0.weight f4 [32, 3]
0	0x3f5746b0	0.84092236
1	0xbec4813e	-0.38379854
2	0x3f300a1a	0.68765414
3	0xbef84bf5	-0.4849545
4	0x3f3e8f9e	0.7443789
5	0xbf16f2dd	-0.5896433
6	0x3e71b34e	0.23603556
7	0x3f032225	0.51223975
8	0xbf5e9ddb	-0.8695962
9	0x3f83e59c	1.0304446
10	0xbec01c85	-0.3752176
11	0xbed761aa	-0.420667
12	0xbe03de41	-0.12877752
13	0x3edb444a	0.42825538
14	0xbf21820f	-0.6308908
15	0xbf581866	-0.8441223
16	0x3f2e566e	0.6810063
17	0x3d296a25	0.041360993
18	0x3f9b5233	1.213446
19	0xbf0d8712	-0.55284226
20	0xbc4f12c3	-0.0126387505
21	0xbf1f7c2b	-0.6229884
22	0xbf095aed	-0.53654367
23	0x3d7decc9	0.061993394
24	0xbf41e4cf	-0.7573976
25	0xbc3f829b	-0.011688854
26	0xbe9a1302	-0.30092627
27	0x3f4a3644	0.7898905
28	0x3ee59083	0.44836816
29	0xbef8398d	-0.48481408
30	0xbe070353	-0.13184862
31	0x3ecfea64	0.40608513
32	0x3f3a744d	0.7283371
33	0x3f00363a	0.50082743
34	0x3e50e364	0.20399243
35	0xbf2557eb	-0.6458728
36	0xbf25723b	-0.64627427
37	0x3eba8fe6	0.3643791
38	0xbe97a05e	-0.29614538
39	0x3f400b86	0.75017583
40	0x3e89b93e	0.2689914
41	0xbcea8563	-0.028628057
42	0xbf638cda	-0.888868
43	0xbec466a7	-0.38359568
44	0xbeaaedc6	-0.33384532
45	0x3f8bb4cf	1.0914553
46	0xbf8f9354	-1.1216836
47	0x3dd9122f	0.10599171
48	0x3e664b50	0.22489667
49	0xbf5f92cc	-0.8733337
50	0x3c67ec10	0.014155403
51	0xbf5570e7	-0.833754
52	0x3c945944	0.018108971
53	0xbec00bdc	-0.37509048
54	0xbf2a494c	-0.6651809
55	0x3ea62e30	0.32457113
56	0x3ed927e8	0.4241326
57	0xbf00aa16	-0.5025953
58	0x3e65f9f5	0.22458632
59	0xbf1aff18	-0.6054549
60	0xbf17f768	-0.59361887
61	0xbcdfe1b5	-0.027329305
62	0xbd7c5733	-0.061606597
63	0x3e9c228b	0.30495104
64	0xbee3104d	-0.44348374
65	0xbc50a852	-0.012735443
66	0x3e292a9c	0.1652016
67	0xbf3a422c	-0.7275722
68	0xbeea06b2	-0.45708233
69	0xbe6ca163	-0.23108439
70	0x3dc96718	0.09834117
71	0x3f1b054b	0.6055495
72	0xbf8c0813	-1.0939964
73	0xbaae2b0a	-0.0013287973
74	0x3f1a03be	0.6016196
75	0x3e271b61	0.16319038
76	0x3ec8c0df	0.3920965
77	0x3f310d93	0.6916134
78	0xbe3f25e7	-0.18666802
79	0x3f66542c	0.89972186
80	0xbd680a94	-0.056650713
81	0x3f1433f9	0.57891804
82	0x3f0f729b	0.5603425
83	0xbcd891e7	-0.02643676
84	0x3ddd5dd2	0.108089104
85	0x3f390eef	0.7228841
86	0xbeb23519	-0.34806135
87	0x3f6f1982	0.93398297
88	0x3f43ad6e	0.7643651
89	0xbf4dff68	-0.80467844
90	0xbece0d43	-0.40244493
91	0x3e6d9b6a	0.23203817
92	0x3f35c215	0.7099927
93	0x3e5a62da	0.21326771
94	0x3f156e70	0.5837164
95	0x3f79718a	0.9743887

0.bias f4 [32]
0	0x3ebc53d9	0.3678272
1	0x3d2320ad	0.039826084
2	0xbed04fb5	-0.40685812
3	0xbeb67881	-0.35638812
4	0x3e990731	0.298883
5	0xbd9c6b09	-0.07637603
6	0xbda11031	-0.078644164
7	0x3f69b699	0.91294247
8	0x3ddf2496	0.1089565
9	0xbef40028	-0.4765637
10	0x3ed01dbf	0.40647694
11	0x3ea9badc	0.33150375
12	0xbd88e0aa	-0.06683476
13	0xbe96d601	-0.29460147
14	0x3f3b0865	0.73059684
15	0x3ef8fd94	0.48630965
16	0x3f0ea7cb	0.5572478
17	0x3ee5c80b	0.44879183
18	0x3e9f616a	0.3112901
19	0x3edf0f2f	0.43566272
20	0x3f1ec2b5	0.6201585
21	0xbee631dc	-0.44959915
22	0xbcc5cb86	-0.0241449
23	0x3f1ce822	0.61291707
24	0x3dd2c1d0	0.10290873
25	0xbec94944	-0.3931371
26	0xbeba4e0d	-0.36387673
27	0xbe085d34	-0.13316804
28	0xbd4bb999	-0.049737547
29	0xbcc464b6	-0.023973804
30	0xbf34109d	-0.7033785
31	0xbeb1d616	-0.34733647

2.weight f4 [32, 32]
0	0xbe44241b	-0.19154398
1	0x3ea19969	0.31562355
2	0x3e98ea78	0.29866385
3	0x3dc0fe5a	0.09423514
4	0x3c175968	0.009237625
5	0xbe495ec5	-0.19665058
6	0xbe17105b	-0.14752333
7	0x3d624032	0.055237003
8	0x3e2c6a7b	0.16837494
9	0xbe247a5a	-0.16062298
10	0xbe492511	-0.19643046
11	0x3d9a333d	0.07529304
12	0x3ea61791	0.32439855
13	0xbefe43ef	-0.49661204
14	0x3e78f9a5	0.24313982
15	0xbdd2ab05	-0.10286526
16	0x3e91d2ed	0.28481236
17	0x3def40e7	0.11682301
18	0xbe3cf5da	-0.1845316
19	0x3e917e46	0.2841665
20	0x3c28a411	0.010293023
21	0x3e6ac32b	0.22926013
22	0x3dabbca3	0.08385589
23	0xbe287e8e	-0.16454527
24	0xbde11f2b	-0.10992273
25	0x3da45101	0.08023263
26	0x3dc5d31d	0.09659407
27	0xbe7777fb	-0.24166863
28	0x3e100e46	0.14067945
29	0xbe8b6b78	-0.2723043
30	0xbd23527c	-0.039873585
31	0xbd16d524	-0.03682436
32	0xbea51684	-0.3224374
33	0xbcdba108	-0.026810184
34	0x3e25f0c8	0.16205132
35	0xbea1194d	-0.31464615
36	0x3e82b323	0.25527295
37	0x3e08f72b	0.13375537
38	0xbf642532	-0.89119256
39	0xbe0e67d5	-0.13906796
40	0xbecb306b	-0.39685377
41	0x3d0dce0d	0.034620333
42	0x3e317b5d	0.17332216
43	0x3e085d22	0.13316777
44	0xbe61dbd4	-0.22056514
45	0xbd234f00	-0.039870262
46	0xbec89c0d	-0.39181557
47	0xbf920245	-1.1406943
48	0xbf51bd2a	-0.81929266
49	0xbe73af71	-0.23797394
50	0x3c8d8eb3	0.017279958
51	0x3d6d1244	0.057878748
52	0x3dbcf5b3	0.09226551
53	0xbd92c549	-0.071665354
54	0xbe35de26	-0.17760524
55	0xbe18521d	-0.14875074
56	0xbeb02eb6	-0.34410638
57	0x3d44efbc	0.04808019
58	0x3f050635	0.51962596
59	0x3edd22b5	0.43190542
60	0x3ec59ab1	0.38594583
61	0x3df6d654	0.120525986
62	0xbda55641	-0.08073092
63	0x3e808ded	0.2510828
64	0xbd8c60f8	-0.06854433
65	0xbf819530	-1.0123653
66	0xbf109e43	-0.5649149
67	0x3e81c0bf	0.25342366
68	0xbe6e5e93	-0.23278265
69	0xbe05721e	-0.13031814
70	0x3e82df88	0.25561166
71	0xbf5dea9b	-0.86686105
72	0xbe72e7da	-0.23721257
73	0x3f885e05	1.0653692
74	0xbeb6a96b	-0.3567613
75	0x3ebf5d0a	0.3737567
76	0xbe5fa110	-0.21838784
77	0x3f0f9f4c	0.5610244
78	0xbf7f44f6	-0.997146
79	0xbdcf6f9c	-0.1012871
80	0xbf373837	-0.7157015
81	0xbf86db54	-1.0535684
82	0xbecdb6ff	-0.40178677
83	0xbf41f750	-0.75767994
84	0xbf42cb3c	-0.7609136
85	0x3d185045	0.037185926
86	0xbd6a1b04	-0.05715467
87	0xbf0098f1	-0.5023337
88	0xbf37fccc	-0.7187011
89	0x3cbfb941	0.023403766
90	0xbe863d7f	-0.26218793
91	0x3f0da160	0.55324364
92	0x3f3fc16d	0.7490452
93	0x3f161377	0.5862345
94	0xbe9842d3	-0.29738483
95	0x3b9583a2	0.004562811
96	0xbea714e9	-0.3263314
97	0x3e48dcce	0.1961548
98	0xbd7f5153	-0.062333416
99	0x3f0e69b1	0.5563002
100	0x3e26d91b	0.16293757
101	0x3db1b53f	0.08677148
102	0x3e80a5d5	0.2512652
103	0x3de8e07d	0.11370943
104	0xbd993cb9	-0.07482285
105	0xbe6daa63	-0.23209529
106	0xbd4d83d3	-0.050174545
107	0x3ebd33c1	0.36953548
108	0x3d274e96	0.04084643
109	0xbe0a0e0a	-0.13481918
110	0x3e372f1b	0.17889063
111	0xbc44dbe3	-0.012015316
112	0x3d96bc26	0.07360105
113	0x3eb6f26f	0.35731837
114	0x3d2b8d96	0.041883074
115	0x3ebcad54	0.3685099
116	0x3e3fa7a7	0.18716298
117	0xbea51105	-0.32239547
118	0x3e305649	0.17220415
119	0xbd214ab1	-0.039377872
120	0xbe9846b4	-0.29741442
121	0xbe041a5e	-0.12900683
122	0x3e61a44d	0.22035332
123	0x3ebc77a6	0.36810035
124	0x3e4e19be	0.20127007
125	0x3ea45d40	0.32102394
126	0xbee6652e	-0.4499907
127	0xbc87e2aa	-0.016587574
128	0xbee61522	-0.44937998
129	0x3dbf652d	0.093454696
130	0x3d1e1c3e	0.038601153
131	0xbd8ae30c	-0.06781587
132	0x3df8c80c	0.12147531
133	0xbe428396	-0.18995509
134	0xbed09af7	-0.4074323
135	0x3e1dce75	0.15410788
136	0xbe593c31	-0.21214367
137	0xbec68dce	-0.38780063
138	0x3d519d52	0.051175423
139	0x3e57361e	0.21016738
140	0x3c0d5657	0.008626542
141	0xbe380b12	-0.17972973
142	0x3e48d3df	0.19612072
143	0xbc31754d	-0.010831189
144	0x3ce1d8e9	0.027569251
145	0x3e6f345e	0.2335982
146	0x3d8be080	0.06829929
147	0x3e136dfb	0.14397423
148	0x3e8669e3	0.2625266
149	0xbdb57c00	-0.08861542
150	0x3e8dee1e	0.27720731
151	0xbe02cec7	-0.12774192
152	0xbe7b0cba	-0.24516574
153	0xbe2d3be7	-0.16917382
154	0x3e5c180d	0.2149355
155	0x3ea82ced	0.32846776
156	0x3e02b228	0.12763274
157	0xbe3a97a4	-0.18221909
158	0xbe7f602a	-0.24939027
159	0x3e05a350	0.1305058
160	0xbd3b9671	-0.04579777
161	0x3dc201d8	0.09473008
162	0x3e113a1c	0.14182323
163	0x3edbc067	0.4292023
164	0xbd1f7502	-0.038929947
165	0x3dca9109	0.098909445
166	0x3ec38f7f	0.38195416
167	0xbdcf2a39	-0.10115475
168	0x3eb64adf	0.35603997
169	0x3e029069	0.127504
170	0xbe339722	-0.17538121
171	0x3dd0d884	0.10197547
172	0x3eb350cc	0.3502258
173	0xbdefd478	-0.11710447
174	0x3d02a1ae	0.03189247
175	0x3dd22ece	0.102628335
176	0x3e107d83	0.14110379
177	0x3de5ba78	0.11217207
178	0xbe6ba5fd	-0.23012538
179	0xbd6181a2	-0.055055268
180	0x3d830a78	0.06398481
181	0x3dc1d442	0.09464313
182	0x3d688565	0.05676784
183	0xbe6f0709	-0.23342527
184	0xbe75d4c7	-0.2400695
185	0xbe5a216f	-0.21301816
186	0xbea35798	-0.31902766
187	0xbecafd7a	-0.39646512
188	0xbe97a20d	-0.29615822
189	0xbe5171e3	-0.204536
190	0xbe0b1825	-0.13583429
191	0xbe614e03	-0.22002415
192	0xbe67af33	-0.22625427
193	0x3eaeb0ec	0.34119356
194	0x3e871e2c	0.26390207
195	0xbead5091	-0.3385053
196	0x3d74c335	0.059756476
197	0xbe0089ce	-0.12552568
198	0xbf8a487b	-1.0803369
199	0xbf07b51f	-0.53010744
200	0xbf0b3580	-0.5437851
201	0x3e8156c2	0.25261503
202	0x3d8821ec	0.06647095
203	0x3d26b088	0.040695697
204	0xbe905fec	-0.28198183
205	0x3d56110c	0.05226235
206	0xbf4bccd9	-0.7960945
207	0xbf9cfddd	-1.2264973
208	0xbf9d949b	-1.2310976
209	0xbeccb767	-0.39983675
210	0xbde50ef9	-0.111844964
211	0xbe259f75	-0.1617411
212	0xbdcb3ac6	-0.099233195
213	0xbe7417ba	-0.23837176
214	0xbe14bad8	-0.145244
215	0xbda96b99	-0.08272476
216	0xbed2fc13	-0.41207942
217	0x3e2442a8	0.16041052
218	0x3f3b5c72	0.73187935
219	0x3e754ae5	0.23954351
220	0x3edb8f6d	0.42882863
221	0x3e2f4a61	0.17118217
222	0xbd979a17	-0.07402437
223	0x3ebd3f51	0.3696237
224	0x3de47557	0.11155193
225	0x3e69169c	0.22762531
226	0x3ecdca26	0.4019329
227	0xbeaec125	-0.34131733
228	0x3e888fa4	0.2667209
229	0xbf2d7ed9	-0.6777168
230	0xbe7c19e2	-0.24619249
231	0xbf9401d1	-1.1563054
232	0xbe8976a5	-0.2684833
233	0x3f45621d	0.77102834
234	0xbe85b4f9	-0.26114634
235	0x3dfa0d46	0.12209563
236	0xbf0f19c7	-0.5589871
237	0x3ea18f89	0.3155482
238	0xbf4f8916	-0.8106855
239	0xbebe5ab6	-0.37178582
240	0xbfefb781	-1.8727876
241	0xbf3adb28	-0.72990656
242	0xbe1a4784	-0.15066344
243	0x3d8f3509	0.069925375
244	0xbe9bab24	-0.30404007
245	0x3c267398	0.010159396
246	0xbe02d04c	-0.12774771
247	0xbea15ea2	-0.31517512
248	0xbe99d50b	-0.3004535
249	0x3e9218e5	0.28534618
250	0x3e39a344	0.18128687
251	0x3e9e6ec1	0.30943874
252	0x3e78f3bb	0.24311726
253	0x3e90e3ea	0.28298885
254	0xbe00f879	-0.12594785
255	0x3ea25b8c	0.3171047

2.bias f4 [32]
0	0xbe409219	-0.18805732
1	0x3da28cfe	0.079370484
2	0xbd85f179	-0.06540198
3	0xbd283ebe	-0.04107546
4	0x3cce189c	0.025158219
5	0x3dba79cd	0.09105263
6	0xbe29ef87	-0.16595279
7	0xbe814424	-0.252473
8	0x3dfa1aec	0.12212166
9	0x3d4670d1	0.048447434
10	0x3e0116e7	0.12606393
11	0x3dd2a95d	0.1028621
12	0xbd8ef12b	-0.06979593
13	0x3d611a96	0.054956995
14	0x3c1ea250	0.009682253
15	0xbde5f23e	-0.11227845
16	0xbe39dc9b	-0.1815056
17	0x3da65951	0.081225045
18	0x3daaa757	0.08332699
19	0x3db90d88	0.09035784
20	0x3d9fe2ca	0.078069285
21	0x3ebf6549	0.37381962
22	0x3db83989	0.08995349
23	0xbdc50a16	-0.09621064
24	0x3ce391ef	0.027779547
25	0xbe963b65	-0.2934219
26	0x3db70574	0.08936587
27	0x3e2b4339	0.16724862
28	0x3e3caaea	0.18424574
29	0x3e8a916d	0.27064076
30	0x3d54df23	0.051970612
31	0x3e87b958	0.26508594

4.weight f4 [2, 32]
0	0x3dd91db3	0.10601368
1	0xbed32044	-0.41235554
2	0x3f28538c	0.6575248
3	0xbe96b735	-0.2943665
4	0xbe891528	-0.26773953
5	0x3cfe256e	0.031023707
6	0xbf795f6e	-0.9741124
7	0x3f41fcc7	0.7577633
8	0xbe5ff022	-0.21868947
9	0xbe91dc73	-0.28488502
10	0xbed2fcbc	-0.41208446
11	0x3e53d4ea	0.20686689
12	0xbe129277	-0.14313684
13	0x3e531455	0.20613225
14	0x3e18d34b	0.14924352
15	0xbe859769	-0.2609208
16	0xbe6c82df	-0.23096798
17	0x3ef0e967	0.47053072
18	0xbea59452	-0.32339722
19	0xbe139547	-0.14412414
20	0xbe49226d	-0.19642039
21	0x3d343dc4	0.044004217
22	0xbd35c01c	-0.044372663
23	0xbea8ad69	-0.329448
24	0x3e3d8243	0.18506722
25	0x3f4769ee	0.7789601
26	0x3e9d5bfb	0.30734238
27	0xbe94eb36	-0.29085702
28	0x3e522381	0.20521356
29	0xbead86a4	-0.33891785
30	0xbe577151	-0.2103932
31	0xbe71f4f7	-0.23628603
32	0x3ea37a80	0.31929398
33	0xbea27e22	-0.31736857
34	0x3f22508f	0.6340417
35	0x3e7233e7	0.23652612
36	0x3cef4fd0	0.029212862
37	0x3e20bb9d	0.15696569
38	0xbe924c64	-0.28573906
39	0xbf577bd5	-0.8417333
40	0xbe79ce36	-0.2439507
41	0x3dc0007e	0.09375094
42	0xbe9b0dfc	-0.30284107
43	0x3ef794ca	0.48355705
44	0xbf46243f	-0.7739906
45	0x3ea231a2	0.31678492
46	0xbf0e75ae	-0.55648315
47	0x3da623aa	0.08112271
48	0x3e97cd5c	0.29648864
49	0x3e374537	0.17897497
50	0x3d33bac0	0.04387927
51	0xbea9798e	-0.3310055
52	0xbe6f6aff	-0.2338066
53	0xbe9f282c	-0.31085336
54	0xbf793017	-0.97339004
55	0xbd0d0398	-0.034427255
56	0x3ebacf10	0.364861
57	0x3ef57d02	0.47946936
58	0xbe104a8b	-0.14090936
59	0x3ca4c17c	0.020111792
60	0xbebf04bb	-0.37308297
61	0xbe643212	-0.22284725
62	0xbef2810c	-0.4736408
63	0xbe2bc0d2	-0.16772774

4.bias f4 [2]
0	0xbd245c0f	-0.040126856
1	0xbe48d214	-0.19611388

0.weight f4 [32, 2]
0	0x3f3647e1	0.7120343
1	0x3e31a2a3	0.17347197
2	0xbebb88b9	-0.3662775
3	0x3ee2c437	0.44290325
4	0x3e70360e	0.2345812
5	0x3df906e0	0.121595144
6	0x3e0a04a3	0.13478331
7	0xbeafc876	-0.34332627
8	0x3f13c71f	0.5772571
9	0xbed91650	-0.42399836
10	0xbdfdc9e4	-0.12392023
11	0x3e6d69a0	0.23184824
12	0x3e9d53ef	0.307281
13	0xbd83805e	-0.064209685
14	0xbf0a7b6b	-0.5409457
15	0x3db5d158	0.0887782
16	0xbeb03018	-0.34411693
17	0xbef73c16	-0.4828803
18	0xbe86bbd8	-0.26315188
19	0xbe8f9a78	-0.28047538
20	0xbe71d7dc	-0.236175
21	0xbf10dabe	-0.56583774
22	0xbe9c363f	-0.30510136
23	0x3d8d3d80	0.06896496
24	0xbf01dca3	-0.5072729
25	0x3eb3a405	0.35086074
26	0xbdb5a5e9	-0.088695355
27	0xbf187a8a	-0.5956198
28	0xbc607c96	-0.013701579
29	0x3e7005b9	0.23439683
30	0x3ead56dd	0.33855334
31	0xbf09565a	-0.5364739
32	0xbf3a9099	-0.7287689
33	0x3d841493	0.06449237
34	0x3f0968f6	0.5367578
35	0x3edbd03c	0.42932308
36	0xbebeca50	-0.37263727
37	0x3d6c2cfd	0.05766009
38	0x3f5a835a	0.85356677
39	0xbec7cfb8	-0.39025664
40	0x3ec00995	0.3750731
41	0xbec50c5a	-0.38485986
42	0x3f22f053	0.63647956
43	0x3e6e05f5	0.2324446
44	0x3f13a7b2	0.5767776
45	0xbea4e390	-0.32204866
46	0x3f02b358	0.51054907
47	0x3f1a4f11	0.60276896
48	0xbeffe1fe	-0.49977106
49	0xbd0ef9e4	-0.034906283
50	0x3f4a0540	0.7891426
51	0xbd993482	-0.07480718
52	0x3effdf83	0.49975213
53	0xbf11db87	-0.569756
54	0xbf10b311	-0.56523234
55	0xbe821315	-0.25405183
56	0x3ea77bae	0.32711548
57	0xbe8f0afa	-0.27938062
58	0xbe9989d8	-0.2998798
59	0xbd41b50d	-0.047291804
60	0xbf29e6f7	-0.6636805
61	0xbf361ddd	-0.7113932
62	0xbe69671d	-0.22793241
63	0xbec420f4	-0.3830639

0.bias f4 [32]
0	0xbc1fe82b	-0.009759943
1	0xbde8e08a	-0.113709524
2	0x3f2c5ae8	0.6732621
3	0x3f145dfa	0.57955897
4	0xbf815950	-1.0105381
5	0x3f8b4295	1.0879694
6	0x3f8321ec	1.0244727
7	0x3eb38d0a	0.35068542
8	0xbd3b8500	-0.045781136
9	0xbf27b8c7	-0.6551632
10	0x3e8628e3	0.2620307
11	0x3ec04504	0.37552655
12	0x3f90c5d7	1.1310376
13	0xbf276997	-0.6539549
14	0x3f8a83b4	1.0821443
15	0xbf983d2a	-1.1893666
16	0xbec30b9a	-0.3809479
17	0xbdaa100a	-0.083038405
18	0x3f56acac	0.83857226
19	0xbe808255	-0.25099435
20	0xbf879e91	-1.0595266
21	0x3f57ed20	0.843462
22	0xbe89a746	-0.26885432
23	0x3f28d4ef	0.6594991
24	0x3f038084	0.51367974
25	0xbf7f0323	-0.9961416
26	0xbfd167d3	-1.635981
27	0xbf4cef77	-0.80052894
28	0xbf3355ce	-0.700528
29	0x3ef7258d	0.48270836
30	0xbf7f31db	-0.9968545
31	0x3ee6c71a	0.45073777

2.weight f4 [32, 32]
0	0x3cc5928a	0.024117727
1	0x3d9f5218	0.0777933
2	0x3d49157f	0.049092766
3	0xbdc2b45a	-0.095070556
4	0xbdeea0cf	-0.116517656
5	0x3dc40b00	0.095724106
6	0x3db3512b	0.08755716
7	0xbdc7b794	-0.097518116
8	0x3e09b583	0.13448147
9	0x3c5a0d3a	0.0133088175
10	0xbd449c2d	-0.048000503
11	0xbdba9b1d	-0.09111617
12	0xbe10aa01	-0.14127351
13	0xbd9d07aa	-0.076674774
14	0x3c9cffad	0.019164884
15	0x3e98ff94	0.2988249
16	0x3e51c224	0.20484215
17	0x3b0be978	0.0021348875
18	0x3df1c11e	0.11804412
19	0x3e3f5763	0.18685679
20	0x3efdc330	0.4956298
21	0x3d26603c	0.04061912
22	0x3e78c1cf	0.24292682
23	0xbc7623df	-0.015023201
24	0xbe161612	-0.14656857
25	0xbef0161e	-0.46891874
26	0xbf0f3af5	-0.55949336
27	0x3e5db2e1	0.21650268
28	0x3edc1a32	0.42988735
29	0xbdc1e1fc	-0.09466931
30	0xbd9fb073	-0.07797327
31	0xbde98e1e	-0.1140406
32	0xbb646b25	-0.0034853902
33	0xbe1ca844	-0.15298563
34	0xbe65425c	-0.22388595
35	0x3d70eb15	0.05881794
36	0x3e7dee13	0.2479785
37	0xbcb31342	-0.021859769
38	0xbea52ab3	-0.3225914
39	0x3cfa4a03	0.03055287
40	0xbe1bc3c6	-0.152114
41	0x3d28195d	0.041039813
42	0xbcde4a0b	-0.027134916
43	0x3c94746b	0.018121919
44	0x3d4a5af8	0.04940316
45	0x3dd5cf41	0.10439921
46	0xbe366455	-0.17811711
47	0x3e9322bb	0.28737435
48	0x3e7d23af	0.24720643
49	0x3ca9abc2	0.020711783
50	0xbe2655b1	-0.16243626
51	0x3ebf32fc	0.37343585
52	0x3e1c9bd0	0.15293813
53	0xbeac1493	-0.33609447
54	0x3cc87868	0.024471477
55	0xbdcc3a5e	-0.0997207
56	0x3b30475c	0.0026898002
57	0x3d8794a2	0.06620146
58	0x3ebbbbc0	0.3666668
59	0x3e08004a	0.1328136
60	0xbd7ffd20	-0.06249726
61	0xbcf0daab	-0.029401144
62	0x3e4eff37	0.20214544
63	0xbd6431a7	-0.055711415
64	0xbe84b14f	-0.25916526
65	0xbe336efc	-0.17522806
66	0x3f06e48d	0.5269249
67	0x3e7cdec4	0.24694353
68	0xbefff622	-0.49992472
69	0x3e1b0f2e	0.1514251
70	0x3e833f68	0.25634313
71	0xbd4e8ad1	-0.050425354
72	0xbd473d46	-0.04864242
73	0xbe2bc902	-0.16775897
74	0x3c24e28c	0.010063779
75	0xbd43549a	-0.047688104
76	0xbd84a4da	-0.064767554
77	0xbda18814	-0.07887283
78	0x3e6522c8	0.22376549
79	0xbf03cf26	-0.5148796
80	0xbd91bc53	-0.07115998
81	0x3dbf98c7	0.09355312
82	0x3e269804	0.16268927
83	0xbe07c5ca	-0.13259044
84	0xbf465c68	-0.7748475
85	0x3ea8a9c1	0.32942012
86	0x3d6653f3	0.056232404
87	0x3db374dd	0.08762524
88	0x3cc505a0	0.024050534
89	0xbed35512	-0.4127584
90	0xbf420f52	-0.75804627
91	0xbd9a38fd	-0.07530401
92	0xbf49824e	-0.78714454
93	0x3dc433b2	0.095801726
94	0xbeb55a38	-0.35420394
95	0x3c9f1801	0.019420626
96	0x3d11668a	0.03549818
97	0xbe8e3137	-0.27771923
98	0x3e1b7a68	0.15183413
99	0x3df78446	0.12085776
100	0xbe5d9c52	-0.21641663
101	0x3eab9c92	0.3351789
102	0x3eb44294	0.35207045
103	0xbdfc38a9	-0.123154946
104	0xbe53cced	-0.20683642
105	0xbe2bb9ba	-0.16770068
106	0x3df90780	0.12159634
107	0x3d49db92	0.049281664
108	0x3e839fdd	0.25707904
109	0xbd4cf239	-0.05003569
110	0x3e3a34a2	0.1818414
111	0xbf1ce71c	-0.61290145
112	0xbe96483b	-0.29351982
113	0xbc9a94c6	-0.018869769
114	0x3dd984a4	0.10621002
115	0xbd189e06	-0.037260078
116	0xbf1dc7d9	-0.6163307
117	0x3d79e5f7	0.061010327
118	0xbe71f71e	-0.23629424
119	0x3e4b68a7	0.1986414
120	0x3e65926c	0.22419137
121	0xbbe8249a	-0.0070844414
122	0xbf05b742	-0.52232754
123	0xbe18cfca	-0.14923015
124	0xbf1fd2bc	-0.6243093
125	0x3beb3312	0.007177719
126	0xbdf9bd63	-0.12194326
127	0xbd23da74	-0.040003255
128	0x3da0c0ec	0.07849297
129	0x3dedf057	0.11618107
130	0x3e8a1d30	0.26975393
131	0x3db34837	0.08754008
132	0x3d13d078	0.036087483
133	0xbc0aef79	-0.008479946
134	0x3dad3e88	0.084591925
135	0x3df09753	0.11747613
136	0xbe1e0695	-0.15432198
137	0xbd0462fb	-0.032320958
138	0xbe4006d2	-0.18752602
139	0xbcac4bb1	-0.021032186
140	0x3d2b62e0	0.04184234
141	0x3dbf6e54	0.09347215
142	0x3db8630a	0.09003265
143	0xbec2b6c6	-0.3803007
144	0x3e34b2a8	0.17646277
145	0x3e311038	0.17291343
146	0x3e044541	0.12917043
147	0x3e71111d	0.23541684
148	0xbe3ad6b8	-0.18245971
149	0x3e2c7eeb	0.1684529
150	0xbe06869d	-0.13137288
151	0x3de8f786	0.11375336
152	0x3d5273d3	0.05137999
153	0x3e2693bc	0.16267294
154	0xbdea502f	-0.11441075
155	0xbe0ecf10	-0.13946176
156	0x3d6d9d28	0.058011204
157	0xbe06782e	-0.13131782
158	0xbe2bb224	-0.16767174
159	0xbda2d2fa	-0.07950397
160	0x3cced6ee	0.02524897
161	0xbe8c6605	-0.27421585
162	0x3eaf7979	0.34272364
163	0xbdda988a	-0.10673626
164	0xbe8c7407	-0.27432272
165	0x3d34f2e8	0.044176966
166	0x3e738719	0.23782004
167	0x3e26e526	0.1629835
168	0x3d7b23b5	0.06131335
169	0xbde1323b	-0.10995909
170	0x3cd656c5	0.026164422
171	0xbdcb2f75	-0.09921161
172	0x3dfa6409	0.122261114
173	0xbe607ce8	-0.21922648
174	0x3e4faa17	0.20279728
175	0xbf065385	-0.5247119
176	0xbe8a3aec	-0.2699808
177	0xbe5d38a1	-0.21603633
178	0x3dd46cf3	0.10372343
179	0xbe21420e	-0.15747854
180	0xbf38081d	-0.7188738
181	0xbe04d503	-0.12971883
182	0x3d3f3543	0.046681654
183	0xbd4c311f	-0.049851533
184	0xbe0a427f	-0.13501929
185	0xbeb0c0f4	-0.34522212
186	0xbe615cff	-0.22008131
187	0x3d6e63f6	0.0582008
188	0xbf1a695b	-0.6031701
189	0xbe40c3c0	-0.18824673
190	0xbe892eae	-0.26793426
191	0x3e06c74b	0.13161962
192	0xbd299f36	-0.0414116
193	0xbe32e48a	-0.17469993
194	0xbe8e87b3	-0.27837905
195	0x3c4dc7d6	0.012559852
196	0xbe100f82	-0.14068416
197	0x3e18caf6	0.14921173
198	0x3d6d84da	0.057988025
199	0xbd5f2653	-0.05447991
200	0x3e3965a9	0.18105187
201	0xbe3d5413	-0.18489103
202	0x3dea0f0c	0.11428651
203	0x3e1b515c	0.15167755
204	0x3e54815f	0.20752476
205	0xbd99948f	-0.074990384
206	0xbe1317e9	-0.1436459
207	0x3bc07492	0.0058732713
208	0x3cbee369	0.023301797
209	0x3dd4b83e	0.10386704
210	0x3e761774	0.24032384
211	0xbe205735	-0.15658267
212	0xbea33ff0	-0.31884718
213	0xbeb0136f	-0.34389827
214	0x3e40c036	0.18823323
215	0xbe4ebd57	-0.20189415
216	0xbd8a1a8d	-0.067433454
217	0xbe3a95ce	-0.18221208
218	0xbe7ac655	-0.2448972
219	0xbe516a9b	-0.20450823
220	0xbe137336	-0.14399418
221	0x3e4edbde	0.2020106
222	0x3e16eee1	0.14739563
223	0x3e64677c	0.22305101
224	0x3e7e17c1	0.24813749
225	0x3b56bcb9	0.0032766296
226	0xbe405524	-0.18782479
227	0xbbea5194	-0.007150838
228	0x3e7d8861	0.24759056
229	0xbecb6ece	-0.39732975
230	0xbe36fd1d	-0.17869993
231	0xbe0944fc	-0.13405222
232	0x3e19daf7	0.15024935
233	0x3c869ee3	0.016433185
234	0x3e0206e6	0.12697944
235	0x3ce0d78b	0.027446529
236	0xbebe8523	-0.3721095
237	0xbc95d7e9	-0.01829143
238	0xbe5b30de	-0.2140536
239	0x3e6cfa79	0.23142423
240	0x3d609aed	0.05483525
241	0x3dee0575	0.116221346
242	0xbe08d5ec	-0.13362855
243	0xbd112e48	-0.035444528
244	0x3eee5445	0.46548668
245	0x3dcde427	0.10053282
246	0xbe1b2f00	-0.15154648
247	0x3db63e21	0.08898569
248	0x3dc67f64	0.096922666
249	0x3e9734d3	0.2953249
250	0x3e402dfb	0.1876754
251	0x3d390c3b	0.04517768
252	0x3e7626c4	0.24038225
253	0x3dd3d636	0.10343592
254	0x3e88222d	0.26588574
255	0xbe205e33	-0.15660934

2.bias f4 [32]
0	0xbc80117d	-0.015633339
1	0xbc93530e	-0.01798394
2	0x3e6ec28f	0.23316406
3	0x3ec16dbc	0.37779033
4	0x3c34f1ce	0.011043979
5	0x3e24fe00	0.16112518
6	0x3ca5845c	0.020204715
7	0xbdaf4f73	-0.085600756
8	0x3daf87db	0.08570834
9	0xbe14233f	-0.1446657
10	0xbe6ff358	-0.23432672
11	0x3eede2f1	0.46462205
12	0xbdf838d8	-0.12120217
13	0xbe7f0da6	-0.2490755
14	0xbd4574b7	-0.04820701
15	0xbe208fcb	-0.15679853
16	0xbe1531a9	-0.14569725
17	0x3e85e863	0.2615386
18	0xbe8d9ecc	-0.27660215
19	0xbcc09994	-0.023510732
20	0xbe0f22d0	-0.13978124
21	0x3c9f905f	0.019478021
22	0x3ea0372c	0.31292093
23	0x3e1e4469	0.15455784
24	0x3e2aca43	0.16678719
25	0x3e270af2	0.16312769
26	0xbc9d8cc5	-0.019232163
27	0x3e29a836	0.16568074
28	0x3d254995	0.040353376
29	0x3ec8e37c	0.39236057
30	0x3ea22383	0.31667718
31	0x3e0c32dd	0.13691278

4.weight f4 [3, 32]
0	0x3ea34a01	0.31892398
1	0x3d750208	0.05981639
2	0x3f1d775f	0.6151027
3	0x3e14def4	0.14538175
4	0xbdd3b6d8	-0.10337609
5	0xbe145dc1	-0.1448889
6	0xbe520ed2	-0.20513466
7	0x3e336813	0.1752017
8	0x3ed254b2	0.41080242
9	0x3ed8210c	0.42212713
10	0xbe3ea138	-0.18616188
11	0x3c72554b	0.014790843
12	0xbdf170c6	-0.11789088
13	0x3ed8debe	0.4235744
14	0x3e3ef04a	0.1864635
15	0x3f1a54d8	0.6028571
16	0xbd1ba2b0	-0.037996948
17	0xbef4624e	-0.4773125
18	0x3d69d684	0.057089344
19	0xbdd3d025	-0.10342435
20	0xbe3acc26	-0.18241939
21	0x3eb2532a	0.34829074
22	0xbd3769e4	-0.04477872
23	0x3df2b512	0.11850943
24	0xbf429381	-0.76006323
25	0x3d93dacf	0.07219469
26	0x3d89916e	0.06717192
27	0xbe70f3a1	-0.23530437
28	0x3d4b0bea	0.04957191
29	0xbee0fa58	-0.43940997
30	0x3d765d0f	0.06014734
31	0x3ecb592f	0.3971648
32	0x3db93ea3	0.0904515
33	0x3db97a55	0.09056536
34	0xbe59d919	-0.21274222
35	0xbeea49ff	-0.4575958
36	0x3e5ef5a1	0.21773387
37	0x3f003be1	0.5009137
38	0x3d27f174	0.041001752
39	0x3e24133c	0.16022962
40	0xbf0c492b	-0.54799145
41	0x3ebef4b8	0.3729608
42	0x3e56a0b6	0.20959744
43	0x3e473a56	0.19455847
44	0xbe35122f	-0.17682718
45	0xbe450441	-0.19239904
46	0xbea917d1	-0.33025983
47	0x3d0b5bd7	0.034023132
48	0xbc62930e	-0.013829006
49	0xbe6cbbde	-0.2311854
50	0xbeffc04e	-0.49951404
51	0x3c38ab00	0.011271238
52	0x3e85929d	0.2608842
53	0x3e9270e8	0.28601766
54	0xbd0705af	-0.032964405
55	0x3e8f7e3a	0.2802599
56	0xbded19ad	-0.11577163
57	0x3dc05610	0.09391415
58	0xbd029bb8	-0.031886786
59	0x3e9bc44a	0.30423194
60	0xbda3f2ca	-0.08005293
61	0x3e7e5e05	0.24840553
62	0xbd45c6a4	-0.04828514
63	0xbd454117	-0.048157778
64	0xbd55046b	-0.052006166
65	0xbe6a982b	-0.2290961
66	0x3d7a7c86	0.06115391
67	0xbd1ed1ac	-0.038774177
68	0xbd2f758e	-0.04283672
69	0xbd9cfa21	-0.07664896
70	0x3df97276	0.12180035
71	0xbd92b800	-0.071640015
72	0xbd529b96	-0.05141791
73	0x3be89a41	0.0070984666
74	0xbe200f97	-0.15630947
75	0x3eee6e6e	0.46568626
76	0xbdc57032	-0.0964054
77	0xbe524588	-0.20534337
78	0xbd6242c2	-0.055239446
79	0x3c1e6074	0.009666551
80	0xbe035948	-0.12827027
81	0x3c3416d5	0.010991772
82	0xbe96b494	-0.29434645
83	0x3c813af3	0.01577518
84	0xbc7b455b	-0.01533636
85	0xbddd6e3d	-0.10812042
86	0x3e8620f2	0.2619701
87	0xbdfcd42f	-0.12345158
88	0xbeeda3dd	-0.4641408
89	0x3edd6e71	0.43248323
90	0xbcbc6f99	-0.023002433
91	0x3e06d7d7	0.13168274
92	0xbe6287cb	-0.22122113
93	0xbdf85874	-0.12126246
94	0x3e0a2973	0.13492374
95	0x3e2812a4	0.16413361

4.bias f4 [3]
0	0xbc5093dc	-0.012730565
1	0x3dbed94f	0.09318792
2	0x3e1a93a7	0.15095387

weight f4 [2, 3]
0	0x3fc1e42c	1.5147758
1	0xc001ef45	-2.0302289
2	0x3e291811	0.16513087
3	0x3f7b466b	0.98154324
4	0xbfdc8d8d	-1.7230698
5	0x3dbdab02	0.09261133
